Final Report/3x3x3/model_3.pth (torch, 101663 bytes, 5 tensors)

1.weight f4 [50, 486]
00000000: e1c5 5d3d 6257 893d 8e65 af3d d659 913d
00000010: fcb2 b23d c0dd d83c f51a 2e3d 24d5 9a3d
00000020: fc71 eb3d d0a2 eb3c 2f19 463c 0f33 413d
00000030: 1d36 bc3b 18a4 303c 6fad 893a 2f81 013c
00000040: 81db f63c 8ebb f23d eb6f 4d3d 962e 413d
00000050: 37f4 713d 36a9 943b 8064 2d3d f7a7 eb3c
00000060: 0b62 293d e15d 113b ad73 893d 5a00 033d
00000070: 0d1a 933c 4045 b23c 10f6 f53c 8862 d2bb
00000080: 521e 9cbc c3d1 e1bc 9590 0ebd 1040 f23b
00000090: 7e24 e63d fa34 a53d f46f 1d3d 30f0 773d
000000a0: ab02 7a3d 4e5f e63c a89d bd3d ee34 703d
000000b0: e1bb ec3d 1ffd 463d 4104 9f3d 553d 9d3b
000000c0: e3e5 853d 53fc 623d 5c40 a03c 667c a73b
000000d0: ab4d d33d 2588 873d 293e b43d a136 963d
000000e0: 5c89 653d 6b3c 523d 6571 d73b d088 413d
000000f0: 9aa2 6cbc c0ad c43c 4379 2bbd f2c9 1f3d
00000100: d428 da3c deb2 78bc 1d7a 583d 643d 763d
00000110: 489d ee3c 7b27 9bba e92d 0e3d 01b3 7a3d
00000120: 7ffe 623c 6c6d 26bc 7715 cabc 84ee f33c
00000130: 1d71 c0bc c08d 483b 88a4 1bbc 106b 0cbd
00000140: 0094 0139 100f f23c e44c c13c 8ed1 363d
00000150: 962c 013d 5eac c4bc 0ca1 1b3c e017 5f3b
00000160: 30e2 18bd 38f4 0a3d 9bf5 9e3d d94c 773d
00000170: 00d1 a83d 504e a33d 2440 7b3d ee10 6c3d
00000180: 48d6 42bc 3e27 01bd 1085 31bc 1443 ab3c
00000190: 7e06 09bd 6665 f7bc b72e 4c3b 56df 473d
000001a0: e76b 0b3d 7bf7 853d d9aa ff3d cb78 233d
000001b0: b035 653d 2d9a be3d 9c7d 283d 92f2 a83d
000001c0: 3cec 983d 7742 8d3d 60e6 8a3d 15dc bd3a
000001d0: f8b0 133d 3fb8 a93d f8c3 133d 7ed9 ae3d
000001e0: eea8 843d af38 5f3d 83d8 1a3d ca06 903d
000001f0: 6329 ab3d c9f2 943d 6013 d03d 27d9 843d
00000200: 4d00 653c 0601 503d d973 943c 8f8c 183c
00000210: 20c9 6e3d e524 b33d ca6c 573a 1d58 1a3e
00000220: 38c4 1b3d 069d 043d 30c9 363d d6c6 2bbd
00000230: 9280 2abd ef7a b2bc 6236 f7bc b8b6 783c
00000240: 2b5b e93d a359 2d3c ad56 423d 3afe 813d
00000250: 75a6 fb3c c892 8b3d ea1d b13d 1453 993d
00000260: 49dd a33d 04ea 583d b7bc 1d3d 8082 703c
00000270: 1811 6b3d 8591 653d fcc5 183d f5b2 793d
00000280: 26d4 db3d 7569 a23d 30bf c83c 6e94 093d
00000290: 2074 ca3c fc8f c83c e828 a53c 64b1 df3c
000002a0: 38ed 8d3d d751 863d 2767 bd3d 7af6 ab3d
000002b0: b91b 363d f419 1b3d 193d 283d 2c30 053c
000002c0: 1ac0 723c 19c0 ab3d d034 043d 2709 593d
000002d0: 8014 c0ba 3098 06bb c0e0 cf3b ce92 2cbd
000002e0: 9826 063c 244d 373d 2df3 eabc e4c4 4c3c
000002f0: 3d87 673d b20e d4bc 5062 9f3c d0de 0b3b
00000300: ec34 833c 20c8 253d 50c0 383c 3a39 2f3d
00000310: 44c1 a53c 5cdc 0d3d 144c c6bc 4c71 043d
00000320: 306c 663b f4a6 693c 1877 8fbb 24d2 b33c
00000330: 0d1f 39ba fa13 353d 7809 873d 1ddb 153c
00000340: b810 303d 3304 283d 1284 2d3d 14d4 7d3d
00000350: 2d76 a83c 44d4 903d 5daa 813d 0315 6b3d
00000360: 3cbd 5c3c b170 efbc 805b 393d 31fb 0abd
00000370: 7c8c 883c 600a a23a c145 b1bc 4c02 943c
00000380: f2b1 86bc fd7a e9bc 6019 d83c 9858 293c
00000390: bdbd 82bc 08a7 d83b d034 fabc 10f1 25bb
000003a0: 5a42 1dbd 87e9 ba3d 0ca9 5f3c 74ed be3c
000003b0: 4eb2 b5bc f4cd 3c3c cc74 84bc 8427 50bc
000003c0: 510f 16bd f404 34bd 0e8b 303d 64c2 393d
000003d0: 65c7 9fbc d03e 9e3c b001 b6bb cfa6 0abd
000003e0: 8b08 d7bc d50b 0bbd a62b 213d f0b4 5bbc
000003f0: a442 03bd c459 f63c 24f1 be3c 6836 a4bb
0.05414379 0.0670612 0.08564292 0.07097213 0.08725545 0.026472926 0.042506177 0.075601846
0.1149635 0.028764158 0.012090965 0.047167834 0.0057437555 0.0107813105 0.0010503958 0.007904335
0.030133964 0.118521795 0.05015556 0.04716357 0.059070792 0.004536773 0.042332172 0.028766615
0.041353267 0.00221812 0.067115165 0.031982757 0.017956758 0.021761537 0.030024558 -0.0064204372
-0.019057427 -0.027565842 -0.034805853 0.0073928908 0.11237429 0.08066745 0.038436845 0.060531795
0.0610377 0.028121617 0.09258586 0.058644228 0.115592726 0.04858124 0.07764483 0.004798571
0.06537988 0.055416416 0.019561939 0.005111265 0.10317548 0.066177644 0.088009186 0.073346384
0.0560392 0.05132715 0.006574797 0.047249615 -0.014443064 0.024008632 -0.04186369 0.03901095
0.026630796 -0.015179364 0.05285083 0.06011714 0.029127732 -0.0011837328 0.034711752 0.061205868
0.013854622 -0.010157924 -0.024668438 0.029776819 -0.023491437 0.0030602068 -0.0094996765 -0.03428179
0.00012357533 0.029548198 0.023596235 0.04463344 0.03153666 -0.024007972 0.009498846 0.003404133
-0.037325084 0.03392431 0.07761689 0.060376022 0.082429886 0.07973921 0.061340466 0.057633333
-0.011891909 -0.031531565 -0.010834947 0.020906009 -0.033453457 -0.030199718 0.0031155774 0.048796974
0.03403845 0.06541344 0.124837585 0.03991012 0.055959404 0.093067504 0.041135415 0.082493916
0.07466933 0.06897443 0.06782222 0.0014485145 0.036057442 0.08287095 0.036075562 0.08537577
0.06477533 0.054497417 0.037804138 0.07032545 0.08357503 0.0727287 0.101599455 0.06486731
0.0139771225 0.050782226 0.018121647 0.0093108555 0.058297276 0.087472714 0.000821781 0.15072675
0.038028926 0.03237631 0.04462546 -0.04193767 -0.04162652 -0.021787135 -0.030177299 0.015180282
0.11394342 0.010580453 0.04744594 0.06347318 0.030719021 0.06815106 0.08648284 0.07486549
0.08001191 0.05295755 0.03851005 0.014679551 0.05738935 0.05604698 0.037298188 0.060961682
0.107338235 0.079302706 0.024505228 0.03358882 0.024713576 0.02448272 0.020161107 0.027306266
0.069300115 0.065585785 0.092481904 0.08396621 0.044460032 0.037866548 0.041073892 0.008129161
0.014816308 0.08386249 0.03227693 0.052987244 -0.0014654547 -0.0020537488 0.006343931 -0.04213219
0.008187912 0.0447513 -0.028680408 0.012498114 0.056525458 -0.025885914 0.019456059 0.0021342523
0.016016446 0.040474057 0.01127632 0.042779185 0.020233758 0.03463398 -0.024206199 0.03233461
0.00351597 0.014260996 -0.0043782108 0.021950789 -0.0007061817 0.044208504 0.06593603 0.009146479
0.042984694 0.04101963 0.04236228 0.06196983 0.020564163 0.070717365 0.06331322 0.057393085
0.013472851 -0.02922854 0.045253277 -0.03393096 0.01666855 0.0012362711 -0.021639707 0.018067501
-0.016442273 -0.028501028 0.026379287 0.010336064 -0.015959615 0.0066117086 -0.030542761 -0.0025320686
-0.038393356 0.09126573 0.013651144 0.023306586 -0.022179749 0.011523712 -0.016168974 -0.012704734
-0.0366357 -0.043950036 0.043101363 0.0453514 -0.019504258 0.01931706 -0.0055544004 -0.033850487
-0.02624919 -0.03394683 0.039348267 -0.013409838 -0.032045975 0.0300721 0.023308344 -0.0050113685

1.bias f4 [50]
00000000: 2d75 c33d cda7 a7bc 77b2 c63d 18cf 453d
00000010: 2de6 a03c 9458 863d 1735 b03d eb5d cb3d
00000020: 4432 743d 7d46 0e3d 7f90 a63d 7fa6 2e3d
00000030: 312a 32bd ba0b 8fbc 7960 8e3d 4600 b23d
00000040: 14c9 2d3d d7dd 553d a70d 913d 2526 8d3d
00000050: cc22 3dbc d86f 67bd e1fd e53c 6c55 843d
00000060: fd3d ac3d 996c 323d 748e 783d 2e8f ae3d
00000070: adfd 923d 256e 2fbc 3389 9c3c c367 313d
00000080: 6bed 853d b79a 9b3c 0c6c 67bd 178e 37bd
00000090: fbf7 44bd a281 05bd 6575 953d 962c 9f3d
000000a0: cf59 133d c33e b83c 698e c23c 99eb e53b
000000b0: b7c4 57bb d29d 64bd 7da2 813c c5d5 eb3c
000000c0: 646e 673d 458e bbbb
0.09543834 -0.020465756 0.09702008 0.048293203 0.019641006 0.06559864 0.08603876 0.09930023
0.05961825 0.03473519 0.08133029 0.04263925 -0.043497268 -0.017461646 0.069519944 0.086914584
0.04242809 0.052213516 0.07082682 0.06892041 -0.011543941 -0.056503147 0.02807516 0.064616054
0.08410261 0.043560598 0.06068273 0.08523403 0.07177291 -0.010707413 0.01910839 0.043311846
0.065394245 0.018994672 -0.056499526 -0.04481324 -0.048088055 -0.03259433 0.07297782 0.07772176
0.03597432 0.022490865 0.023749547 0.007016611 -0.0032923648 -0.05581457 0.01582455 0.028788457
0.05650176 -0.005723747

3.weight f4 [10, 50]
00000000: 59e2 27be 9e7e 09be bbbf b83d 5b04 713c
00000010: 4ee1 5dbd e8f4 17be 6a77 843d 96d0 dc3d
00000020: a7d5 c9b9 51c2 82bc 6a16 19be cee4 adbc
00000030: 167f 6a3c d115 02be 5256 f33c f699 d33d
00000040: 1656 9ebc 5590 7a3d 022a c83d f1ad ecbd
00000050: 36b9 94bc c7e9 a83d ae36 ad3d 2a52 cdbc
00000060: 5b2b 823c a7e4 d63d 0b80 d33b c519 8abd
00000070: f316 7abd fa60 fbbd 5dab 163d 671b 87bc
00000080: 0fdc 423d 716f 26be 4467 e93c 650f a23d
00000090: ccf3 fabd a9e6 c9bd 2618 13be eaec b7bd
000000a0: f1f8 d63d 9c79 85bd 9f57 4dbc 67e7 ecbd
000000b0: 5ccd 923d e536 bcbd 1141 bb3d 8f62 603d
000000c0: eeff 84bc 4612 a53c a0f4 983d 05f7 ba3d
000000d0: df68 1e3e 502e 0cbd e6ac 903c dff8 2e3e
000000e0: 776e 783c 20f6 113e 9501 c23d 5f7e 473e
000000f0: 8405 1f3e b458 ac3d fbe7 b4bd 5d06 803d
00000100: d707 e63d 0bc6 153e 0eae 3f3e 8aaf 223e
00000110: cec9 453e 4c70 3e3e 0443 b13d c10f 99bc
00000120: d75e 8c3d 8216 d13d a90f 3c3e 680d adbc
00000130: b73b 063d 661b 473e b7e6 e43c b9c1 a1bd
00000140: dc2d 09bd 4bba 073e a8b2 323e 9e1d 373e
00000150: 6c3c 983c 2fdc 023e 6c4d de3d e5fa 94bd
00000160: 019b 493e 12b1 3f3e 0897 783c cb8f 9e3d
00000170: acae 15bd 7cab e7bd 9ce6 dbbc e4a0 d9bd
00000180: 52e7 223e 96e9 0c3e 24b5 0b3e 86cd 47bd
00000190: 7f12 20bd 0e3d 913d 9b77 983d 1664 b73c
000001a0: 6f32 f53d 7cf5 143e 763f 133d af15 a43c
000001b0: b1e4 863d da1a 833d 81d5 183e ab30 483e
000001c0: f97f 373c b456 fcbc c69f e53d 2abb 473d
000001d0: 2750 943d c444 da3d 29b9 70bd 21de 80bd
000001e0: 0a19 e0bc 5b11 c73d 8dc5 b23d 31a1 0bbc
000001f0: 4646 31bd ebcf 0abd 8d28 273c dcab 273d
00000200: 38ff 48bc d3ba 193d d929 81bd 6257 043d
00000210: b502 c53c 2a42 963d 6e35 883d d571 41bc
00000220: 89c1 d13b c5d4 51bd 3c35 11bd fed8 a1bd
00000230: 95cc 31bd 3e80 ef3d 14c9 9c3d 4650 ccbc
00000240: f51a 183e 0276 93bd e0df a03d 9ae0 3d3e
00000250: 5c71 4f3e 798b 3bbd 889a 533e cfa3 d9bd
00000260: 3560 cf3d 5f92 653d 1bd0 0a3e 5817 c23d
00000270: ec71 c83d cfea 2f3d 0d55 f83d 6912 80bb
00000280: 1586 7abd c4ee 193e 89eb 2138 1313 e6bd
00000290: 8a2a 783d 929f cbbc 080f bb3c 89f9 35bd
000002a0: b222 13bd 8ae5 1a3e f313 8bbd b668 cd3d
000002b0: bfcd f8bd d702 4d3e b41c 1aba 7c46 dfba
000002c0: 3a81 ba3d abf6 bf3d 9cd1 6c3d aa68 94bd
000002d0: 8b28 b2bd 538a 373e d791 0b3e 240e 2f3e
000002e0: 574f c5bd 0ece d9bd 5f57 0d3e da67 04be
000002f0: 05f2 253d f295 83bd 2e9b 4c3e 0691 fbbd
00000300: 792a f83c 448c 93bd 1d24 8a3d f055 1dbd
00000310: ff03 023e 6f34 e4bc 91b6 2e3e 4ea2 813d
00000320: d939 2c3c 3126 39bd 0185 3b3d 1d77 74bd
00000330: c108 353e b6b3 3d3e 86cc 493d dfc8 2dbd
00000340: c637 d13d 7bc8 8db9 29a4 91bd c972 623d
00000350: 3198 e7bd 8e40 89bd 9cb3 123e 0af4 1f3e
00000360: 648f d6bc 49af 453e 2817 91bd 56a6 ed3d
00000370: 0e7b 833d 9da3 163e 9136 e03c df1a 523c
00000380: 9c8d a43d 524a b53b 31ab 083e 2f32 8dbd
00000390: 1da8 71bb 9dfa fabc 6b52 9fbd 1698 54bd
000003a0: 523a 0e3e 5527 113e c0e6 213d 473c c43d
000003b0: 76de e93d e2ac ad3c 8aa8 033e 45b9 383e
000003c0: b7e5 bdba 4b7b e73c 3a4f f03c dbae d4bd
000003d0: 28f4 e63d f44f b43d b476 4e3e 881e 543e
000003e0: 1f02 8abc 005b c33d f5e2 353d f5cb b9bd
000003f0: 4adc f93d 3b8f 323e 8189 f73d a552 c23d
-0.16394939 -0.13427207 0.09020945 0.014710511 -0.054169945 -0.14839518 0.06468089 0.10781972
-0.0003849689 -0.015961798 -0.14949957 -0.021227267 0.014312526 -0.12703635 0.029704247 0.103321
-0.019328158 0.061172802 0.09773637 -0.11556614 -0.018154722 0.082477145 0.08457695 -0.025063593
0.015889814 0.10492831 0.006454473 -0.067431964 -0.061057042 -0.12274356 0.03678452 -0.016492559
0.047573145 -0.16253449 0.028491624 0.079130925 -0.12253532 -0.09858448 -0.1436468 -0.08980735
0.104967006 -0.06517336 -0.0125330975 -0.11567574 0.071680754 -0.09190158 0.0914327 0.054781493
-0.016235318 0.020150315 0.074685335 0.091291465 0.15469693 -0.034223855 0.01766057 0.17087124
0.015163056 0.14254045 0.09472958 0.194818 0.15529448 0.08415356 -0.08833309 0.06251214
0.11231964 0.14626329 0.1871874 0.15887275 0.19315264 0.18597525 0.0865536 -0.01868427
0.06854027 0.10209371 0.18365349 -0.021124557 0.032771792 0.19444045 0.027942045 -0.07898278
-0.033491 0.13254659 0.17450964 0.17882392 0.018583499 0.12779306 0.10854611 -0.07274417
0.19688036 0.1871989 0.015172727 0.0774227 -0.036543533 -0.11312005 -0.026843362 -0.106263906
0.15908554 0.13760981 0.13643318 -0.048779987 -0.03908014 0.070917234 0.07444688 0.022386592
0.1197251 0.1454677 0.035949193 0.02002987 0.06586588 0.06401606 0.14925195 0.19549815
0.011199945 -0.030803062 0.11212115 0.048762478 0.0724185 0.10657647 -0.058770332 -0.06292368
-0.02735569 0.09720107 0.08729086 -0.008522318 -0.04327991 -0.033889692 0.010202539 0.040935382
-0.01226788 0.037531685 -0.0630681 0.032309897 0.024049142 0.073368385 0.06650816 -0.011806925
0.006401245 -0.051228303 -0.03545116 -0.07902716 -0.043407995 0.11694382 0.0765554 -0.024940621
0.14854033 -0.072002426 0.07855201 0.1854271 0.20258087 -0.04578731 0.20664418 -0.10626947
0.10125772 0.056047793 0.13555948 0.09477109 0.09787354 0.04294854 0.12125597 -0.0039084447
-0.061163027 0.15032488 3.860475e-05 -0.11234107 0.060587443 -0.024856362 0.022834316 -0.04442743
-0.03592176 0.15126625 -0.067909144 0.10029738 -0.12148618 0.20020615 -0.0005878911 -0.0017034556
0.09106679 0.0937322 0.057817087 -0.072465256 -0.08699139 0.1792386 0.13629852 0.17095238
-0.096342735 -0.10635005 0.1380286 -0.12930241 0.04051401 -0.06425084 0.19981071 -0.122835204
0.03029369 -0.07204488 0.06745169 -0.038412035 0.12696837 -0.027857034 0.17061831 0.06329785
0.010511839 -0.045202438 0.04578114 -0.059683908 0.1767912 0.18525586 0.049267314 -0.042427894
0.10215716 -0.00027042985 -0.07111389 0.05528525 -0.11308325 -0.06701766 0.14326328 0.15620437
-0.02619142 0.19305147 -0.07084495 0.11603992 0.06419955 0.14710851 0.02736977 0.012823789
0.08034822 0.0055325413 0.13346554 -0.068943374 -0.0036873885 -0.03063708 -0.07779392 -0.051902853
0.13889435 0.1417516 0.0395267 0.095818095 0.11419384 0.021200601 0.12857261 0.18039425
-0.0014488016 0.028257033 0.029334653 -0.103849135 0.11277038 0.08804312 0.20162469 0.20714772
-0.016846715 0.09538841 0.044405896 -0.09072105 0.1220022 0.1743745 0.12086774 0.094884194

3.bias f4 [10]
00000000: fb8b 22be 49fc 0fbd 2bb1 8c3d b06c 343d
00000010: 6489 6a3d 02cf 333d 1adb 523c 4345 efbd
00000020: fbac 933d 8f84 9c3d
-0.15873711 -0.035152707 0.068697296 0.044048965 0.057259932 0.04389859 0.012869621 -0.116831325
0.07210728 0.07642471

5.weight f4 [1, 10]
00000000: 729a efbd b0eb 933e beba aa3d 57dd 123e
00000010: f70d db3d 9c7a 573e f308 933e da71 9bbd
00000020: 7363 ad3e 4e85 4dbe
-0.1169938 0.28890753 0.083363995 0.14342247 0.10696023 0.21042866 0.28717765 -0.07590075
0.33864936 -0.20070383
