Final Report/2x2x2/model_7.pth (torch, 33311 bytes, 5 tensors)

1.weight f4 [50, 144]
0	0x3d0d1666	0.03444519
1	0xbd01ee21	-0.031721238
2	0x3d641f95	0.05569418
3	0x3d7123d8	0.058872074
4	0x3c69a4bf	0.01426047
5	0x3c7fe4e6	0.0156185385
6	0xbd933ac9	-0.07188947
7	0x3a7549cb	0.00093570043
8	0xbbd2ab3d	-0.0064291046
9	0x3ba22056	0.0049477024
10	0x3c22ce65	0.009936904
11	0x3d2942b0	0.041323364
12	0xbc55e67e	-0.013055442
13	0xbc270d8d	-0.010196102
14	0xbd824337	-0.063604765
15	0xbdaf4c2d	-0.08559451
16	0xbc232c4f	-0.009959294
17	0x3d71e880	0.05905962
18	0xbdc7a7eb	-0.09748825
19	0x3cac7b0d	0.021054769
20	0xbc90cd5d	-0.01767605
21	0xbd6f9cbf	-0.058499094
22	0x3c5408eb	0.012941579
23	0x3b54bc64	0.0032460922
24	0xbcf4b2fb	-0.0298705
25	0xbcab81d0	-0.020935923
26	0xbc285f82	-0.010276677
27	0x380778c2	3.2298973e-05
28	0xbdd84467	-0.10559922
29	0xbd029338	-0.03187868
30	0xbdb12fd3	-0.086517
31	0xbc994791	-0.018710883
32	0x3bd7226d	0.006565383
33	0x3cb40fb4	0.021980144
34	0x3a9222ab	0.0011149248
35	0x3cdaf5a9	0.026728468
36	0xbce6403e	-0.028106805
37	0xbd78b0bc	-0.060715422
38	0x3d49131f	0.0490905
39	0xbc882a52	-0.016621742
40	0xbb9d65de	-0.0048034033
41	0xbd02ab0e	-0.03190141
42	0xbd850807	-0.06495672
43	0xbd59496a	-0.05304853
44	0x3ccc4bcf	0.024938492
45	0xbd102032	-0.035186954
46	0xbd3494b0	-0.044087112
47	0xbc49a7c0	-0.012308061
48	0xbd21ec07	-0.039531734
49	0xbd8ef8f6	-0.06981079
50	0xbc8da54d	-0.017290736
51	0xbd58010a	-0.052735366
52	0xbdc44c31	-0.09584845
53	0xbb6c191b	-0.0036025706
54	0xbdd358c6	-0.103196666
55	0x3d3e541a	0.046466924
56	0xbdab05b7	-0.083506994
57	0x3d016d48	0.03159836
58	0xbb6aae24	-0.0035809362
59	0xbdd6fff8	-0.10498041
60	0xbd39eedc	-0.04539381
61	0x3d345b8f	0.04403263
62	0xbd4de63f	-0.050268408
63	0xbdb87949	-0.09007508
64	0x3d70605f	0.058685657
65	0x3d1f39c8	0.038873464
66	0xbd6ba289	-0.057528052
67	0x3cee441a	0.029085208
68	0x3d2a3d61	0.04156244
69	0x3d7238ec	0.059136316
70	0xbd9aae22	-0.075527444
71	0xbcb766ae	-0.022387829
72	0x3d0dbb8f	0.034602698
73	0xbd8442b0	-0.06458032
74	0x3c807918	0.015682742
75	0xbd96d0cc	-0.073640436
76	0x3cd3b20e	0.025841739
77	0xbd901033	-0.0703434
78	0xbc7e6d64	-0.01552901
79	0xbd9b2994	-0.0757629
80	0x3cd7c79d	0.0263403
81	0x3b95864f	0.00456313
82	0xbda3c418	-0.07996386
83	0x3d0347b2	0.032050796
84	0x3d6d9cfb	0.058011036
85	0xbd6c1153	-0.05763371
86	0xbdb5a455	-0.088692345
87	0xbc1b85aa	-0.009492317
88	0x3d2c69f9	0.04209325
89	0x3c32f04c	0.010921549
90	0xbd43c4d7	-0.047795143
91	0xbda8d81f	-0.08244347
92	0xbac3fbf6	-0.001495241
93	0xbcc79b8a	-0.024366159
94	0xbdc570c1	-0.09640647
95	0xbd0bbbd3	-0.03411467
96	0x3c6e9d24	0.014563832
97	0xbd15681b	-0.036476236
98	0xbdbc9169	-0.09207422
99	0x3d61fbe7	0.055171873
100	0xbd6e4e9c	-0.058180436
101	0xbd6e242f	-0.058139976
102	0xbc95fece	-0.018309977
103	0xbc18d384	-0.009327773
104	0xbda66ead	-0.081265785
105	0xbd438c25	-0.047741074
106	0xbcd7a65a	-0.02632444
107	0xbd5cffd7	-0.053954925
108	0x3cb5a39d	0.022172743
109	0xbd6d0f09	-0.057875667
110	0xbd3006a6	-0.04297509
111	0x3d18512b	0.037186783
112	0x3ce019e5	0.027356097
113	0x3d7f9adb	0.06240354
114	0x3d0acb48	0.03388527
115	0x3cd9cdda	0.026587415
116	0xbdc0a82d	-0.09407077
117	0x3d287ca8	0.041134506
118	0xbd17fe82	-0.037107952
119	0xbdb3b350	-0.087744355
120	0xbdb507b2	-0.088393584
121	0xbd25e314	-0.04049976
122	0xbb172eb1	-0.0023068602
123	0x3add42d4	0.0016880878
124	0xbd7d50f6	-0.06184479
125	0xbcda1697	-0.0266221
126	0xbcc90fac	-0.024543606
127	0x3d5e582e	0.054283313
128	0xbcef1230	-0.029183477
129	0x3d88aa4d	0.06673107
130	0x3d009570	0.031392515
131	0xbcb404ac	-0.021974884
132	0x3c16d538	0.009206109
133	0x3d7f4e4e	0.062330537
134	0xbd94fc9c	-0.07274744
135	0xbd8df880	-0.06932163
136	0xbda10224	-0.078617364
137	0x3d898f8d	0.06716833
138	0xbda6eeda	-0.08151026
139	0x3d98a531	0.07453383
140	0x3d8046c3	0.06263497
141	0x3d85e3cb	0.06537589
142	0xbd7267b6	-0.059180938
143	0x3c1a9ba0	0.009436518
144	0x3deb9fd9	0.11505098
145	0xbcead26b	-0.028664788
146	0x3c777139	0.015102678
147	0xbd798f4d	-0.060927678
148	0xbd168309	-0.03674606
149	0xbcd25694	-0.02567605
150	0x3daf2662	0.08552243
151	0xbda081cd	-0.078372575
152	0x3e1ad679	0.15120877
153	0xbd17be43	-0.037046682
154	0xbd993eb4	-0.07482663
155	0x3d016af7	0.03159615
156	0x3d2155b5	0.039388377
157	0xbcc953d5	-0.024576107
158	0xbd10ad5c	-0.03532158
159	0x390b8f46	0.00013309447
160	0xbd5c5770	-0.053794324
161	0x3e0e448d	0.13893338
162	0x3cecd27a	0.028908957
163	0xbdc967ae	-0.098342285
164	0xbd80e8bc	-0.062943906
165	0x3cbfb795	0.023402968
166	0x3d99a571	0.075022586
167	0x3bbd05ea	0.0057685273
168	0xbd32eeaf	-0.043684658
169	0xbd8a8a0b	-0.06764611
170	0x3dae7d33	0.085199736
171	0x3d87df00	0.06634331
172	0xbd6b7a29	-0.057489548
173	0xbda8a394	-0.08234325
174	0x3c896bed	0.016775096
175	0xbcdbe8ae	-0.026844349
176	0xbd059430	-0.032612026
177	0xbd633a2b	-0.055475395
178	0x3daf538f	0.085608594
179	0x3c6f321c	0.014599349
180	0x3c9bb210	0.019005805
181	0x3d69eee5	0.057112593
182	0xbcf40bcc	-0.029790781
183	0xbd823049	-0.06356866
184	0xbc2bcf33	-0.010486412
185	0x3da1a9f5	0.07893745
186	0x3c5772ce	0.01314993
187	0xbb361cef	-0.0027788242
188	0x3d07dc82	0.033169277
189	0x3dd12343	0.10211804
190	0x3c869ea4	0.016433068
191	0x3c892d3e	0.016745206
192	0xbcaaa356	-0.020829838
193	0x3d1a7a30	0.037714183
194	0x3d9870c3	0.074433826
195	0x3d9800c9	0.07422025
196	0xbb42cf98	-0.0029725786
197	0x3d211de4	0.039335147
198	0x3d846405	0.0646439
199	0xbd4c6952	-0.04990513
200	0xbd57aec1	-0.052656893
201	0x3d47cb9d	0.048778165
202	0x3d95fd9b	0.07323762
203	0x3d335893	0.043785643
204	0x3da5359a	0.08066864
205	0xbce7ebfd	-0.02831077
206	0x3d197190	0.037461817
207	0x3ddef13a	0.10885854
208	0x3a8bf69d	0.0010678355
209	0x3d7171fc	0.058946595
210	0x3ba4ffed	0.0050353915
211	0xbd956725	-0.07295064
212	0xbd52962f	-0.051412757
213	0x3d0a245b	0.033726078
214	0x3daee26d	0.08539281
215	0xbd0c98be	-0.034325354
216	0xbd7fcaac	-0.062449142
217	0x3d20095c	0.039071426
218	0xbd3de5cd	-0.046361733
219	0x3d0e0828	0.034675747
220	0xbc9b98ef	-0.018993823
221	0xbcbb3d8b	-0.022856494
222	0xbd18ee97	-0.037336912
223	0x3d403ecd	0.04693489
224	0x3de20b80	0.1103735
225	0x3d9812bf	0.074254505
226	0x3cd6e365	0.026231477
227	0xbc9bf8ee	-0.019039597
228	0xbd3eb533	-0.046559524
229	0x3d32a3f2	0.04361338
230	0x3b85a5a4	0.004078584
231	0x3cd16d00	0.02556467
232	0xba287836	-0.0006426604
233	0x3d10971a	0.03530035
234	0x3c5e2653	0.013558942
235	0x3de73d1d	0.11290953
236	0x3d877e87	0.0661593
237	0xbd4d7a3d	-0.050165404
238	0xbd9ba469	-0.07599718
239	0xbd58f1b2	-0.052964874
240	0x3c89bcf6	0.016813736
241	0x3c0cf059	0.008602225
242	0x3d81e0c0	0.06341696
243	0x3d10e818	0.03537759
244	0xbc82f410	-0.015985519
245	0xbd48a7b2	-0.04898805
246	0xbd80c5e6	-0.06287746
247	0xbd97ae73	-0.074063204
248	0xbd28b775	-0.041190583
249	0xbd352407	-0.04422381
250	0x3d5ed50b	0.054402392
251	0xbd931dca	-0.07183416
252	0xbd5e7623	-0.054311883
253	0x3df67ad9	0.1203515
254	0xbc9501db	-0.018189361
255	0x3d30157f	0.04298925

1.bias f4 [50]
0	0x3bc4dfd0	0.006008126
1	0xbd673d8c	-0.05645518
2	0x3da706f6	0.081556246
3	0x3d12640b	0.03573994
4	0xbca4381c	-0.020046286
5	0x3cf6d767	0.030132009
6	0xbd7be7d8	-0.0615004
7	0x3db1d4e3	0.08683183
8	0x3bcb2717	0.006199728
9	0x3c17f984	0.009275798
10	0x3dc539ea	0.09630187
11	0xbcc9258a	-0.024554033
12	0xbc9d89f5	-0.019230822
13	0x3d6f8df2	0.05848498
14	0x3daae254	0.0834395
15	0x3dcc6591	0.0998031
16	0xbd144107	-0.036194827
17	0x3d74ca5c	0.059763297
18	0x3d176a0b	0.036966365
19	0x3c0fa6f2	0.00876783
20	0xbd8e3d55	-0.06945292
21	0x3d1b2ef7	0.037886586
22	0xbd91bcac	-0.071160644
23	0xbcd40812	-0.025882754
24	0xbd8842c3	-0.06653359
25	0xbd4c9772	-0.049949117
26	0x3cf1cc86	0.02951647
27	0xbc7aac50	-0.015299872
28	0xbd410212	-0.047121115
29	0x3d06c02a	0.032898106
30	0xbd37ad11	-0.044842783
31	0x3cdaa90a	0.026691932
32	0x3d544f52	0.05183346
33	0xbdc2e6b4	-0.095166594
34	0xbd263c82	-0.04058505
35	0x3dcba0c7	0.09942775
36	0x3dba8b05	0.09108547
37	0x3d53f094	0.051743105
38	0x3d970dd5	0.07375685
39	0x3d33728e	0.04381042
40	0x3d8f58c3	0.06999352
41	0x3cebe500	0.02879572
42	0x3ce13d0d	0.027494932
43	0xbd521aaf	-0.05129498
44	0x3d42c81c	0.04755412
45	0x3d2e5eca	0.042570867
46	0xbd321d62	-0.043485053
47	0x3be46ae7	0.0069707516
48	0xbc862726	-0.01637609
49	0x3d6b6062	0.057464965

3.weight f4 [10, 50]
0	0xbe043f9f	-0.12914895
1	0xbc701c0b	-0.014655123
2	0xbd0b619f	-0.034028646
3	0xbd90e9f1	-0.07075871
4	0xbc805520	-0.01566559
5	0xbe0b72c9	-0.13618006
6	0x3d82813a	0.06372304
7	0xbdab30e9	-0.08358938
8	0xbdadb3d9	-0.08481569
9	0xbd9524b2	-0.0728239
10	0x3d4df76c	0.050284788
11	0xbc16eebd	-0.009212193
12	0xbd566082	-0.05233813
13	0x3d6be991	0.057595793
14	0x3d9c6714	0.07636848
15	0xbdd15e21	-0.10223032
16	0x3c6407ab	0.013917844
17	0xbc552f03	-0.013011697
18	0x3ba93258	0.005163472
19	0x3b85d38b	0.004084056
20	0x3c26865f	0.0101638725
21	0xbcdde924	-0.02708871
22	0x3d0e21d5	0.034700233
23	0xbd9b7611	-0.07590879
24	0x3d35f2fd	0.044421185
25	0x3ddcf57d	0.10789011
26	0x3c4bf4dd	0.012448517
27	0x3dda94fd	0.106729485
28	0xbe265128	-0.16241896
29	0xbc0657e0	-0.008199662
30	0x3cd0cf04	0.025489338
31	0x3a993688	0.0011689225
32	0xbd1af877	-0.03783461
33	0x3dbf321a	0.09335728
34	0xbe079681	-0.13241006
35	0xbe251940	-0.16122913
36	0xbd76882c	-0.060188457
37	0x3df0cf07	0.11758237
38	0xbdd46479	-0.10370726
39	0xbd689d53	-0.05679066
40	0xbcb10799	-0.021610068
41	0x3df76ce5	0.12081317
42	0xbd458611	-0.04822356
43	0xbd8e72cf	-0.06955492
44	0xbba0b2b4	-0.0049041156
45	0x3d48b949	0.049004827
46	0x3de399fb	0.11113354
47	0x3dddce7f	0.10830402
48	0xbd71c55f	-0.05902612
49	0xbe1e296a	-0.15445486
50	0xbe066522	-0.13124517
51	0x3d407db3	0.046994876
52	0x3ddd5159	0.108065315
53	0xbd0057de	-0.031333797
54	0xbdcc0b4d	-0.09963093
55	0x3dd5d084	0.10440162
56	0x3dbb6001	0.09149171
57	0x3d0171e8	0.03160277
58	0x3daa721d	0.08322547
59	0xbd391c8b	-0.045193236
60	0xbe04720a	-0.12934127
61	0xbd9a2c5a	-0.07527991
62	0x3da67104	0.08127025
63	0xbdb2c060	-0.08728099
64	0xbc64395e	-0.013929693
65	0xbcfb30d0	-0.030662924
66	0x3cb2dbdc	0.021833353
67	0x3cfdace3	0.030966228
68	0x3da43cb8	0.08019394
69	0xbe262898	-0.16226423
70	0xbbddf698	-0.006773781
71	0x3ccba96d	0.024861062
72	0x3ddcd730	0.10783231
73	0xbc5e5647	-0.013570375
74	0xbdcbfe59	-0.09960622
75	0x3dfcf87e	0.123520836
76	0x3db6a461	0.089180715
77	0x3d0ab373	0.033862542
78	0x3db8dd91	0.090266354
79	0xbdba4e09	-0.09096915
80	0xbde53838	-0.111923635
81	0x3d1c5920	0.038170934
82	0xbdac75e4	-0.08420923
83	0xbe107f8c	-0.14111155
84	0x3dc30882	0.09523107
85	0x3c005e5a	0.007834995
86	0xbd8677b3	-0.065657996
87	0x3e017d19	0.12645377
88	0x3d075e39	0.033048842
89	0x3c753a5a	0.014967525
90	0x3c886d63	0.016653722
91	0x3ba6b327	0.0050872746
92	0x3dc8795c	0.097887725
93	0xbdd44f3a	-0.10366674
94	0x3db9fa93	0.09080996
95	0xbe0ba240	-0.13636112
96	0x3db0a154	0.08624521
97	0xbde59dfd	-0.112117745
98	0xbd291b70	-0.041285932
99	0xbe10ec56	-0.14152655
100	0x3e0a2245	0.13489635
101	0xbd96ad79	-0.07357306
102	0x3cdd4b8b	0.02701356
103	0xbc9701bc	-0.018433444
104	0x3c54614f	0.012962653
105	0x3e174e90	0.14776063
106	0xbb982477	-0.004643019
107	0xbc9cc564	-0.019137092
108	0x3daf56fa	0.08561511
109	0x3db437d7	0.08799713
110	0x3de3adb4	0.111171156
111	0xbd05ebd5	-0.03269561
112	0xbdeaa133	-0.114565276
113	0x3df0cc37	0.11757701
114	0xbdab27c2	-0.083571926
115	0x3e0815be	0.13289544
116	0x3c9208dd	0.017826492
117	0x3ca208e5	0.019779632
118	0xbc720fc3	-0.014774266
119	0xbcef4c8b	-0.029211303
120	0x3d1d0831	0.03833789
121	0x3da3ab4b	0.07991656
122	0x3df9ad84	0.121912986
123	0x3d737a13	0.05944259
124	0x3c89acab	0.016805967
125	0xbd23a15e	-0.039948814
126	0xbdf03fae	-0.11730896
127	0xbcf53db1	-0.029936643
128	0x3e0e2945	0.1388293
129	0xbc93a910	-0.018024951
130	0x3d0acd68	0.033887297
131	0xbd6cd04c	-0.057815835
132	0x3d8951b5	0.067050375
133	0xbca9d530	-0.020731539
134	0x3e35c855	0.17752202
135	0x3d9f8d4d	0.07790623
136	0x3c88c8a9	0.016697245
137	0x3e513bef	0.20433019
138	0x3ce164ed	0.027513945
139	0x3dc5e884	0.096634895
140	0x3e00cd8c	0.1257841
141	0xbd25972e	-0.04042738
142	0x3e3b1f0f	0.18273567
143	0x3d2d91d0	0.042375386
144	0x3d5ad982	0.053430088
145	0xbd06c3cd	-0.032901574
146	0xbe150bea	-0.14555326
147	0x3dda5a6f	0.1066178
148	0x3e33b702	0.1755028
149	0x3dbc900b	0.092071615
150	0xbe1b4820	-0.15164232
151	0xbe15c61e	-0.14626357
152	0xbd7b4f14	-0.06135471
153	0xbd527857	-0.051384296
154	0xbdeab80a	-0.11460884
155	0x3dd8ee6b	0.105923496
156	0x3dacfab4	0.08446255
157	0x3dd10757	0.10206478
158	0x3df464cb	0.11933287
159	0xbda7b493	-0.08188739
160	0xbd6ec580	-0.05829382
161	0xbd29ccd3	-0.0414551
162	0x3e015d2c	0.12633198
163	0x3dc3dc12	0.095634595
164	0x3aa2a2a0	0.0012408085
165	0xbe138c96	-0.14409098
166	0xbd0991ee	-0.033586435
167	0x3bc07cff	0.0058742757
168	0xbbc30abd	-0.005952208
169	0xbcc4f8b3	-0.02404437
170	0xbe143d0a	-0.1447641
171	0x3dfc22ae	0.12311302
172	0xbdd3fb04	-0.10350612
173	0x3d058741	0.03259969
174	0x3dc4d95a	0.09611769
175	0x3d9d959e	0.07694553
176	0x3ddfbcdc	0.10924694
177	0xbe17dba9	-0.14829887
178	0xbdb0a704	-0.08625606
179	0x3d398d33	0.045300674
180	0xbd50aa66	-0.050943755
181	0xbe055bf9	-0.13023366
182	0x3dd70ea4	0.10500839
183	0x3e017624	0.12642723
184	0x3cbeafe5	0.023277232
185	0xbcfaafa7	-0.030601336
186	0x3d347136	0.04405328
187	0x3bd03b7c	0.0063547473
188	0xbcc9727c	-0.024590723
189	0xbcf2762e	-0.029597368
190	0xbdc65816	-0.0968477
191	0x3d3ad504	0.045613304
192	0xb991f2c6	-0.00027837435
193	0x3da64698	0.081189334
194	0x3cf51ab3	0.029919958
195	0xbdf941d9	-0.121707626
196	0x3c9e5219	0.019326257
197	0x3a5fe189	0.0008540382
198	0xbe15a8ea	-0.14615217
199	0x3d80b7bb	0.06285044
200	0xbdc26d63	-0.0949352
201	0x3e408d11	0.18803813
202	0xbd7ef584	-0.06224586
203	0x3e31e6a0	0.17373133
204	0x3e38fc1d	0.18064924
205	0xbddb8f58	-0.107207
206	0x3d970c34	0.073753744
207	0x3df4654b	0.119333826
208	0x3e36aa31	0.1783836
209	0xbdbf3bd4	-0.09337583
210	0x3e0372a1	0.12836696
211	0x3cee7083	0.029106384
212	0x3e1cca4e	0.15311548
213	0xbd126cf2	-0.03574843
214	0x3da141e1	0.078738935
215	0x3d7067c2	0.0586927
216	0x3caf2cdf	0.0213837
217	0xbb7d1ef6	-0.003862319
218	0x3dd8a18e	0.10577689
219	0x3e3d9d61	0.18517067
220	0xbd8fe6b6	-0.070264265
221	0x3cd1c4b9	0.0256065
222	0xbdc9ba56	-0.09849994
223	0x3d94fa7a	0.07274337
224	0xbdaf16d1	-0.08549274
225	0xbda5f9cb	-0.08104285
226	0x3d8ba563	0.068186544
227	0xbdb6552c	-0.08902964
228	0x3e17e027	0.14831601
229	0x3e0edf3e	0.13952348
230	0x3dab15bd	0.083537556
231	0x3e28f54b	0.16499822
232	0xbdb279db	-0.08714648
233	0x3ddbd48f	0.10733902
234	0x3e2b238f	0.16712783
235	0x3db97671	0.09055794
236	0x3dfaee7e	0.1225252
237	0x3dce56e4	0.10075167
238	0x3e1923ca	0.14955059
239	0xbc128c0a	-0.008944521
240	0x3e176773	0.14785556
241	0xbde55c8f	-0.11199295
242	0xbd584216	-0.0527974
243	0x3e0852c8	0.13312829
244	0xbde607f1	-0.112319835
245	0xbcc91c33	-0.02454958
246	0x3da244a7	0.07923251
247	0xbd8f39fc	-0.069934815
248	0x3e463534	0.19356233
249	0xbdb50ce2	-0.08840348
250	0x3ca9a5c6	0.02070893
251	0x3d397236	0.045274936
252	0x3d8795ce	0.0662037
253	0x3d39778e	0.04528003
254	0x3d0f3fc9	0.03497294
255	0x3dc84d89	0.09780414

3.bias f4 [10]
0	0x3dd1f115	0.10251061
1	0xbe151ea8	-0.14562476
2	0xbdc6c89a	-0.097062305
3	0x3ddfc7e0	0.10926795
4	0x3e199dc3	0.15001588
5	0xbce32169	-0.027725892
6	0x3ceefe7b	0.02917408
7	0x3dcbe673	0.09956064
8	0xbd740f36	-0.05958482
9	0x3dfa0561	0.12208057

5.weight f4 [1, 10]
0	0xbdbfcedb	-0.093656264
1	0xbdfdd30a	-0.12393768
2	0x3d9de9ab	0.07710584
3	0xbdedea56	-0.11616962
4	0x3e8434a0	0.258214
5	0x3eab6ef4	0.33483088
6	0x3e870478	0.26370597
7	0x3e4d5db5	0.20055278
8	0x3ec76e34	0.38951266
9	0x3e452ed8	0.1925615
