Final Report/2x2x2/model_5.pth (torch, 33311 bytes, 5 tensors)

1.weight f4 [50, 144]
00000000: 3f05 603d 53b4 cebd 7a1b 78bd 748e 54bd
00000010: f324 24bd 27bb 27bd d7ba 8e3c 782b 0b3d
00000020: 19c6 74bd cd65 9ebd 7025 8fbd beb2 243d
00000030: 7cac 6fbd 90a1 393d 4748 f53c 1e4b 1dbd
00000040: 8c8b 85bd e230 fdbc 30fa 493d 159a 98bd
00000050: fbb8 97bd b202 a0bc ab94 373d c7fc 9dbd
00000060: dacc a7bd 28a7 aabd fece c7bd 18be 16bc
00000070: 0f9b d5bd c356 76bd 82ac aabd 600b 0f3d
00000080: c099 0a3d d566 37bd 62ef 29bd 4ef4 8cbd
00000090: 6d62 343d 88b0 9bbd 450c b9bc 3cd8 653d
000000a0: 5369 47bd 7f78 bcbd e095 8bba 7f27 223d
000000b0: b198 7ebd 06a9 1c3d 2ca4 96bd 5e5b 4cbd
000000c0: 83aa 263d 9247 c5bd 84ba 23bc 082c b5b8
000000d0: fd00 8ebc 28de 173d bf52 c2bd 430f 703c
000000e0: cbf8 4e3d 6441 43bd 6bf4 423d 7f3e 913c
000000f0: cada cdbd 1444 aebc 8620 653b 2560 c3bd
00000100: 3a19 02bd 156b aabd 43c1 693d 29b7 75bd
00000110: f2e5 c2bc 01ca c1bd ca11 bc3a 25d7 93bd
00000120: 242b 2e3d 3a8d 693d efb2 e13c bf12 2a3d
00000130: 3dde 2b3d a58c 4fbc a4fe 94bd 93fc 55bc
00000140: 7f0e 46bd 7dc7 50bd 73c2 a6bc 14b4 6ebc
00000150: 735e 90bd b00b 3ebd 6ac4 ccbd 01e9 063d
00000160: d70d 1a3c 8ccc 3abb 9cd1 abbd c023 a13c
00000170: 4973 6abd 0608 95bd 772a 583d b46b 6fbd
00000180: 4d34 383c c7be 283c b7e1 edbb 706e 6b3d
00000190: 90f5 fdbc d202 32bd 22c1 6ebd dc51 02bd
000001a0: 2134 b03c b2fc 4abc 8c00 2bbd 7a22 9fbc
000001b0: 09d0 e0bb b4dd 16bc cdfc c6bc c9e0 b7bb
000001c0: 20a3 0bbc e968 0bbd 5d15 15bd 79f8 093d
000001d0: bc97 d13a 7436 7bbc 83af a43c 2fc0 b83b
000001e0: 6d55 5b3a f9a6 b1bb 1dd4 a4bd d440 c0bd
000001f0: 9e00 28bc d49e 413c 165b 04bd b741 acbd
00000200: 01f5 893d dcc4 e33c dc9c ab3c 46c5 44bd
00000210: c0de a2ba 0c6d a1bc 8c4b e23c 171c de3b
00000220: f0a4 ec3b 3082 34bd d0c0 ecbc ecd7 bdbc
00000230: 0a0f 473d 088b 0cbd 4069 4a3d 2e7a 3f3d
00000240: df40 c33d c5c1 20bb d2c6 8b3d 3665 72bc
00000250: 9548 5c3b f35b f2bc bb8b 4bbd 47cd 19bd
00000260: cd7a 123e 2cf6 50bb 5d3b 27bd 55e2 01bd
00000270: 2772 5fbc 12fc 163d afd4 573d 8c67 91bd
00000280: c37a 92bd f629 8d3d a50a 6c3d 7523 863d
00000290: 18c9 d23c c965 55bd 8c76 633c 92f3 66bc
000002a0: b60d 913d 8e51 8fbc b98f 9b3c 9f4c 26bd
000002b0: 51c3 b53d 3144 923d b54a 743d 007b 9f3d
000002c0: 6ede ae3d cff6 2a3d a97a 853d 8c31 953d
000002d0: f60d e93d abd0 8d3d ae05 bf3d e54a bbbc
000002e0: 408c 5b3d 49e7 2a3d 6565 313d 720a b23c
000002f0: bcdb a43d 45f3 c43d fa0d 9a3d ca2e 3a3c
00000300: 5585 6dbd 423e d1bc 8ff8 a43d 6cc7 e13c
00000310: a395 863d baa1 013e 692f e33c b223 67bc
00000320: 5631 e1b9 64b3 2ebd d8c3 cd3b fd31 533b
00000330: a19a b33d 2471 edbc 44f4 ee3c a0ed 1b3e
00000340: b37c dfbb 4c4b ae3d f7c1 203d 60c2 493d
00000350: 702b 87bd 9a71 c63c 2e46 fa3d 103f 933b
00000360: 8dc0 02bd d15f 923d 37f4 6b3c 533d 943d
00000370: 396b 3abc 033d 253d 6d52 b43c 2f4d 1cbd
00000380: 74c4 aa3a e945 b73d fe55 f93c bde4 d63b
00000390: 1167 713d 5518 b6bc 264f abbc 3788 c83d
000003a0: 684b b33c 7752 5d3d 5582 35bd 9a57 673d
000003b0: c7de 9b3c ab4e 5abd e84b 823d 048f 943d
000003c0: bfa9 653c 5398 71bc a427 003e 444c 123d
000003d0: 1c0a 153d 51ba e9bc 7c8f e4bc 120b 45bd
000003e0: 7d5e 91bc 9a2d 703d cb17 da3d ca4c 6dbb
000003f0: f126 31bd 124d cf3d 9657 c8bc a309 e5bc
0.054692503 -0.10092988 -0.06057308 -0.051893666 -0.0400743 -0.040949967 0.017423077 0.033977002
-0.059759233 -0.07734261 -0.069895625 0.040209524 -0.058514103 0.045320094 0.029941691 -0.038401715
-0.06520757 -0.030907098 0.049310863 -0.07451264 -0.07408329 -0.019532535 0.044819515 -0.07714229
-0.08193369 -0.08332664 -0.097562775 -0.009200595 -0.10429966 -0.060141336 -0.083336845 0.034922957
0.033838034 -0.044775803 -0.04148806 -0.06882535 0.04403918 -0.0760203 -0.022588858 0.05611442
-0.04868443 -0.0920267 -0.0010649525 0.039588448 -0.062157337 0.03824713 -0.07355532 -0.049891822
0.040689956 -0.096327916 -0.009993199 -8.638954e-05 -0.017334456 0.0370771 -0.09488439 0.014652076
0.050530236 -0.047669783 0.047596376 0.017729996 -0.10051496 -0.021272697 0.0034962012 -0.095398225
-0.03176234 -0.083212055 0.057069074 -0.05998913 -0.023791287 -0.09462357 0.0014348563 -0.0721877
0.04252161 0.05701945 0.027551142 0.041521784 0.04195999 -0.01266781 -0.07275131 -0.013060707
-0.04835367 -0.050971497 -0.020356392 -0.014569301 -0.07049265 -0.046397865 -0.099984005 0.032937054
0.009402714 -0.0028503267 -0.08389589 0.019670367 -0.05723885 -0.07276921 0.052774873 -0.058452323
0.011242938 0.010299391 -0.0072595733 0.05747837 -0.031000882 -0.04345972 -0.058289655 -0.03181635
0.021509232 -0.012389349 -0.04174857 -0.01942562 -0.006860737 -0.009208132 -0.024290467 -0.0056115133
-0.008522779 -0.034035597 -0.036397327 0.033684228 0.0015990655 -0.015332807 0.020103222 0.0056381444
0.00083669164 -0.005421516 -0.0804827 -0.09387365 -0.010254053 0.011817653 -0.03231343 -0.084109716
0.06736184 0.02780383 0.02094882 -0.048039697 -0.0012426004 -0.019705318 0.027623914 0.006778251
0.0072218105 -0.04406947 -0.028900534 -0.023174249 0.048598327 -0.034312278 0.04941678 0.04674738
0.095338576 -0.0024529558 0.06825031 -0.014794638 0.0033612598 -0.02958486 -0.049693804 -0.037549283
0.14304657 -0.003188501 -0.040828098 -0.031709988 -0.013638056 0.036861487 0.052693065 -0.07099828
-0.07152321 0.06892769 0.05762734 0.06549732 0.025730655 -0.052099023 0.013883244 -0.014096158
0.07082693 -0.017494943 0.01898943 -0.040600415 0.08875144 0.07141913 0.05964156 0.07787132
0.08538519 0.04173928 0.06517536 0.07284841 0.11379616 0.06924566 0.09327255 -0.022862861
0.05360055 0.041724477 0.043309588 0.021733496 0.080497235 0.096167125 0.07522197 0.011363694
-0.057988483 -0.025542382 0.08055221 0.027560912 0.0657151 0.1265935 0.027732568 -0.0141076315
-0.00042952102 -0.04265155 0.00627945 0.003222584 0.087697275 -0.028984614 0.02916921 0.15227365
-0.006820285 0.085104555 0.03924748 0.049257636 -0.06600082 0.024224091 0.12220417 0.0044936016
-0.031921912 0.07147182 0.014401487 0.07238259 -0.011378103 0.04034139 0.02201196 -0.038159546
0.0013028518 0.08948881 0.030436512 0.0065580294 0.058936182 -0.0222284 -0.020911764 0.09791606
0.021886542 0.054033723 -0.044313747 0.056480028 0.019027127 -0.05329768 0.06362134 0.072538406
0.014017521 -0.01474579 0.12515122 0.035717264 0.036386594 -0.028531225 -0.02790045 -0.04810626
-0.01774525 0.05863724 0.106490694 -0.00362091 -0.043250028 0.10122122 -0.024455827 -0.027958697

1.bias f4 [50]
00000000: 7376 2dbd a19e 2a3d a056 733c aa2f a93c
00000010: cfd0 9f3d 2499 1c3d ebe1 753d b85c cd3c
00000020: 8165 4e3d 91d7 a73c 33b2 08bd c385 6bbd
00000030: eac6 7ebc 24be 833b f1c4 4bbd c09f d1bd
00000040: 65ab 533c dcf4 0a3e 90b1 febc 9222 b83d
00000050: c8ea b93d 29ee 2e3d 5ca0 3a3d 2ffa 583d
00000060: e32b 843d 645a a9bd c924 993d 4ada 29bd
00000070: 352e 4b3d c67e 6a3d 2dc4 873d 39e0 c33d
00000080: 2b1c a73d 1f52 813d ca9b afbd 314c 87bd
00000090: a5a4 163c 4a8f 083d 9c79 c6bd c0fd a73d
000000a0: 4bd9 be3c f514 b7bd e6ed 2f3d 800d 70bd
000000b0: 8c3d 86bd acc0 72bd 1dbd f33c 014e aabd
000000c0: 87dd c43d 65bb 593d
-0.04234929 0.041655187 0.014852196 0.02065261 0.07803499 0.038231984 0.060029905 0.025068626
0.05038977 0.020488532 -0.03337307 -0.057500612 -0.0155503545 0.0040204693 -0.049748365 -0.10235548
0.012919282 0.13569969 -0.031090528 0.08990969 0.09077984 0.042707596 0.045563087 0.05297297
0.06453683 -0.08269194 0.07477719 -0.041467942 0.049604613 0.057249807 0.066292144 0.095642515
0.081596695 0.063144915 -0.08574636 -0.06606329 0.009194528 0.033339776 -0.09691164 0.08202696
0.023296973 -0.08939544 0.042951487 -0.058606625 -0.06554708 -0.059265777 0.029753262 -0.08315659
0.096125655 0.05315723

3.weight f4 [10, 50]
00000000: 1efd fa3d f58e d43c a60e c3bd 9587 e9bc
00000010: b385 ea3d f196 a03d 76f4 013e 3935 313d
00000020: 4506 6c3e b1ac eb3c d6bc 0fbd bdd0 1b3e
00000030: 39cb 943e 9aee 013e 16c7 783d 3728 1a3e
00000040: fae4 6abe e244 8bbe e171 f73d f1a9 a5bd
00000050: a249 98bc 194c 4e3e 1f5c dcbc d20e c93d
00000060: b0f4 163e 4e28 2b3d 23c8 e7bb 0e32 533e
00000070: 024e 8cbd 13a3 88bd ecac 4d3e b9fc c8bc
00000080: 75a8 9e3e a924 423e cc9e be3d 8c11 2c3c
00000090: 8dd3 a73c fad4 0bbe 87cb d8bd d1c0 fc3a
000000a0: 32c5 68bd ded5 5abe 194b e73d b5dc 1c3e
000000b0: b1bf 943d 78e2 52be 904e 28bd c41e 14be
000000c0: 4cf0 913d 212e 9cbd 639c bc3c b4f7 bfbc
000000d0: adae 763d b2b3 243c 793e 7dbc ff8a 863c
000000e0: decf 353e a48f 44bd b230 403e 76ff 373e
000000f0: d857 22bd 31c9 123e becb 5e3e 1407 a83c
00000100: 85d5 fcbb 3f9f f13c 4f65 2b3d ca48 3ebe
00000110: 4822 1d3e 553a fa3d 6a46 9e3d 3419 71bc
00000120: 1716 e6bc 3b51 a2bd e8c4 a9bd 7817 b23d
00000130: 30cb 2e3e e4b8 8abb 8ba0 b63d fa11 cc3d
00000140: c728 823d cc0f 63bd 2713 833c 8963 1a3e
00000150: 3782 39bd a515 a93d e01b 363e d92d c63d
00000160: a03f 1d3e dedb 6c3a d628 f83c cc39 a3bd
00000170: 33fe 2e3e d213 983d 2210 c1bd f158 0ebd
00000180: 2d6b 143c f18b d83d 60f7 ff3c 11ff 2b3e
00000190: 77c0 d4bd bbf9 f8bd 0c66 d1bc 96f6 22be
000001a0: e149 e23d 8cac 8d3d 73ed a63c 6429 413d
000001b0: 657d bd3c b350 b73d 0134 dabd 752d 613c
000001c0: 8fe2 bfbc 865e 03be e707 abbd 33f5 e9bd
000001d0: 3bce 903d 3ba4 6fbc 1968 78bd 3367 6abd
000001e0: 309d 3bbd 3011 8dbd 19f2 03be c154 fa3c
000001f0: 3fc2 cdbd 7708 5bbd 9355 863d 9e06 96bc
00000200: 2c81 bc3d d1f2 153d 4ca5 4ebd f09f 3c3c
00000210: 0eba 18be 2f13 913d 2d3c 82bc ac44 783c
00000220: 84a4 e0bd fac3 ecbd 061a 53bd 1901 cbbd
00000230: 6d54 57bd fe11 2c3c 012a 23be f606 f7bd
00000240: bea2 8f3b bfca e5bd 80f2 90bd f9d3 d33d
00000250: 58d6 943d 664f e53c 5d6d efbd 5f35 c53d
00000260: de2e 193e 9983 ec3d 0cab d83d d844 093e
00000270: dd9a 9d3c b380 e4bd a3f3 b43d 3875 393e
00000280: cd64 393d c479 d13d 68c7 e43d c43c 973d
00000290: 8476 60bd c512 bcbd 1ca3 1bbd 5ed7 47bd
000002a0: be04 1f3e a932 b33d e091 173e 9c4a 883d
000002b0: f436 bbbd 0971 c2bd cdcb 113e a2c6 cbbd
000002c0: 77ba b13d 6312 083e 95de 62bd 736e 023e
000002d0: 06db 8f3d 319d 853d dc4a bdbc 7aa2 083e
000002e0: 0246 1fbd 3867 90bd ef34 cf3d 9cfb d7bd
000002f0: 6b22 8bbd 3fb2 f23d 87a2 e4bd 5bed 6bbd
00000300: e94f 6e3d 57e4 a0bd c469 323d e403 70bd
00000310: 9376 ee3d 248f 4ebd 7fb5 083e 4dfa 1b3e
00000320: 02f6 3c3d c26d a13d 38fd cebd 88b8 303d
00000330: 6b14 9a3d bc54 a4bd 7a45 3f3d f14c 123d
00000340: d804 04bd 9836 7f3d 4ae3 983c 23ad 883d
00000350: 7609 ce3d d3c3 e73c 58fd 913d 5e9f d93d
00000360: 87ca 01be 7000 893b b951 403d 5805 8fbd
00000370: ad3d 543c 1f7c 003e 847d a2bb 8e9b 543d
00000380: 216d eabd af45 1ebc f142 1bbe fa99 f1ba
00000390: 480d e5bc 76c7 13be ed35 0fbe fe17 1cbe
000003a0: 31e4 b43d 68b8 00be 1b54 b9bd 8f44 89bd
000003b0: a223 903c 9a7f 0b3d e7fb 12bd 879b 303d
000003c0: 2956 26bd 7749 af3d cf04 9cbc dbb2 ea3c
000003d0: e80f dc3d ab59 75bd 1810 97bd 9b48 b93c
000003e0: f3bc 8cbd 26aa 1dbe 61c2 04bd 10d7 8b3d
000003f0: 6e63 d9bd 47d2 90bc 0395 093e b3b0 073e
0.122553095 0.025947073 -0.09524278 -0.028507033 0.11451282 0.0784129 0.1269091 0.043263648
0.23049267 0.02876887 -0.035092197 0.15216346 0.29061297 0.12688676 0.06073674 0.15054403
-0.2293891 -0.2720099 0.120822676 -0.080890544 -0.018589798 0.20146216 -0.026899396 0.0981728
0.14741778 0.041786484 -0.0070734187 0.20624563 -0.06850816 -0.06671729 0.20085496 -0.02453457
0.30987898 0.18959297 0.09307632 0.01050223 0.020486617 -0.13655463 -0.10585695 0.0019283538
-0.056828685 -0.21370646 0.112936206 0.15318568 0.07263125 -0.20594203 -0.041090548 -0.14464861
0.07125911 -0.07625986 0.02302379 -0.023433544 0.060225178 0.010052608 -0.015456789 0.0164237
0.17755076 -0.04798855 0.18768576 0.17968544 -0.039634556 0.14334561 0.21757409 0.020511188
-0.007715883 0.02949488 0.041844662 -0.18582454 0.15345109 0.12218157 0.07728274 -0.014715482
-0.028086705 -0.0792565 -0.0828951 0.086958826 0.17069697 -0.0042334665 0.0891734 0.09964366
0.06355434 -0.055434987 0.016000343 0.15077032 -0.0452902 0.082560815 0.17784071 0.096767135
0.15356302 0.00090354483 0.03029291 -0.07970008 0.17089157 0.074256554 -0.09426905 -0.03475279
0.009058756 0.10573567 0.031245887 0.16796519 -0.10388272 -0.12157007 -0.025561355 -0.15914378
0.110492475 0.06917676 0.020376896 0.047158614 0.023131082 0.08950939 -0.1065445 0.013743748
-0.023423461 -0.12829027 -0.083511166 -0.11423721 0.07070585 -0.014626558 -0.06064615 -0.057227325
-0.045804203 -0.06888044 -0.12885322 0.030557992 -0.10046815 -0.05347487 0.06559291 -0.018313702
0.09204325 0.03660852 -0.050450608 0.011512741 -0.14914724 0.07083737 -0.015897835 0.015153091
-0.10968879 -0.11560817 -0.05153849 -0.09912319 -0.05257075 0.010502337 -0.15933992 -0.120618746
0.004383414 -0.112203114 -0.07077503 0.10343165 0.07267445 0.027991962 -0.11690781 0.0962932
0.14959285 0.11548538 0.105794996 0.13405168 0.019238884 -0.1115736 0.088355325 0.18111122
0.045262147 0.10228303 0.11170846 0.07384637 -0.054800525 -0.091832675 -0.03799735 -0.048789375
0.15529153 0.08749897 0.1480174 0.066548556 -0.09141341 -0.09494216 0.142379 -0.099499956
0.086781435 0.13288264 -0.055388052 0.12737446 0.07024197 0.065241225 -0.023106985 0.1334323
-0.038885124 -0.070509374 0.10117518 -0.105460376 -0.06793674 0.11850404 -0.11163812 -0.057599407
0.058181677 -0.07856052 0.043557897 -0.05859746 0.1164371 -0.05042948 0.13350485 0.15232201
0.04613305 0.07882263 -0.101068914 0.043144733 0.07523426 -0.08023974 0.046697117 0.03571791
-0.03223118 0.062307924 0.018663067 0.06673648 0.10060398 0.028291618 0.071283996 0.106261
-0.12674914 0.0041809604 0.046952937 -0.06983441 0.012954158 0.12547348 -0.0049588103 0.05190616
-0.11446596 -0.009660169 -0.15162255 -0.0018432729 -0.027960435 -0.14431557 -0.13985415 -0.15243527
0.088325866 -0.12570345 -0.09049245 -0.0670253 0.017595116 0.034057237 -0.035884764 0.043117072
-0.040609512 0.08558934 -0.019045262 0.028649738 0.107452214 -0.059899967 -0.073761165 0.022617629
-0.06871977 -0.15396938 -0.032411937 0.06828129 -0.10614668 -0.017678393 0.1343575 0.13250999

3.bias f4 [10]
00000000: 163f 9ebd 7c4f 203c cc0b f93d e228 9b3c
00000010: 2b1a c5bd e1cc 4cbd 7e1a cebd be20 a8bc
00000020: 822d bdbb 5092 a4bc
-0.077268764 0.009784576 0.12160453 0.018940393 -0.09624132 -0.050000075 -0.10063647 -0.020523425
-0.005773247 -0.020089298

5.weight f4 [1, 10]
00000000: b202 ac3e 2c7c aa3d 4e9c 1fbe 4620 b93e
00000010: b7f8 85be 5455 1b3e dbd9 843d 32d2 683e
00000020: 7bba 85bc 0769 163e
0.33595806 0.08324465 -0.1558697 0.36157435 -0.26166317 0.15169269 0.06486865 0.22736433
-0.016324272 0.14688502
