Final Report/2x2x2/model_6.pth (torch, 33311 bytes, 5 tensors)

1.weight f4 [50, 144]
000000 7b 86 ab 3d 87 78 de bb 23 75 3c 3d 16 1a 36 bd
       0.083752595 -0.0067892703 0.046010148 -0.04445847
000010 33 a7 72 3d 74 d8 da 3c 39 cc c9 bc 01 59 7c 3d
       0.059241485 0.026714541 -0.024633514 0.06160832
000020 30 cc ad 3d 83 8e 9f 3d d1 db 25 bd 17 83 26 bd
       0.08486211 0.07790854 -0.040492836 -0.04065236
000030 a8 54 87 bc c0 34 74 3d c1 b9 0b 3c 71 05 61 bd
       -0.01651986 0.05962062 0.008528174 -0.05493683
000040 b1 72 a4 3d 0b 7d 41 bd 48 61 9f 3d db fe 94 3d
       0.08029688 -0.04723839 0.07782227 0.07275172
000050 27 71 bd 3b 32 0c c5 bc 56 3d 53 3d 99 d3 b7 3b
       0.005781311 -0.024053667 0.051572166 0.005609941
000060 61 c4 af 3d 59 95 0a 3d 8a 78 51 bd ff 65 33 bd
       0.08582378 0.033833835 -0.051140346 -0.043798443
000070 7c e2 19 3c 2c f3 fe 3c b5 6f c5 3c 0b 97 65 3d
       0.009392377 0.031121813 0.024101118 0.05605225
000080 38 91 1f 3c e2 da 6c 3d 17 6a d3 3d b8 4d 96 bb
       0.009739213 0.05782593 0.103229694 -0.0045869015
000090 5e 5a ba 3c 94 89 0a 3d e6 e5 8f bd 01 35 88 3d
       0.022748169 0.03382261 -0.070262715 0.06650735
0000a0 c9 f6 5f 3d ea 72 9c 3d 15 c0 12 bd 74 d7 e7 bc
       0.054678712 0.076391056 -0.035827715 -0.028300978
0000b0 2c b4 be 3d 89 ef 61 3d f2 9a 8c bc 36 d2 1a bc
       0.09311709 0.05516008 -0.017163727 -0.009449532
0000c0 61 3a 3f 3d 70 cd 27 3d b1 97 5f bd 7f a1 6d 3d
       0.046686534 0.040967405 -0.054588024 0.058015343
0000d0 30 57 9c 3b af f2 69 bc cf 4d 4d bd 93 00 7b bd
       0.0047711357 -0.014279052 -0.050123032 -0.061279844
0000e0 80 1a 99 3d ac 64 9a 3d ff 48 78 3d 11 7a 79 bd
       0.074757576 0.07538733 0.06061649 -0.060907427
0000f0 87 3d 81 bd c3 86 48 bd 69 52 ba 3d 2e 17 63 3d
       -0.063105635 -0.048956644 0.0909775 0.055442028
000100 b3 eb a7 3c ea ac ec 3c ed 77 58 3d 48 72 be 3b
       0.020498132 0.028891046 0.052848745 0.005811963
000110 54 35 25 3d 62 91 c3 3b e7 7b a4 3c 05 c5 b0 3d
       0.04033406 0.0059682587 0.020078612 0.086313285
000120 f9 f0 1b bc b9 34 26 3d 14 be e3 bc 28 64 eb bc
       -0.009517902 0.040577624 -0.027800597 -0.028734282
000130 7d b2 83 3d 12 98 75 bd 2a a2 8a bc c1 03 81 bc
       0.06430528 -0.05995948 -0.016923029 -0.01574886
000140 3d a0 78 3d 04 3f cf 3c f3 76 4c 3c d2 dd 8d 3d
       0.06069969 0.025298603 0.012479532 0.069270745
000150 0b f2 1e 3d b2 e6 90 bb 63 91 18 bd 69 f3 09 bd
       0.03880505 -0.0044220323 -0.037248027 -0.0336794
000160 d7 ba 0c 3d ce 06 8e 3c 79 99 0e 3d b8 ab ac 3d
       0.03435787 0.01733723 0.03481433 0.0843119
000170 13 41 2f 3c 0f 33 3c bd 75 15 9f 3d e3 49 0e 3b
       0.010696667 -0.04594713 0.077677645 0.002171152
000180 fb 91 81 bd a1 99 50 3b 06 88 67 bd dd 1e 99 bc
       -0.06326672 0.0031829851 -0.056526206 -0.018691475
000190 91 c2 bc 3d 00 83 2d 3d 91 0a 4c bd 8d b3 05 3d
       0.09216798 0.04236126 -0.049814764 0.032641936
0001a0 09 6a 52 bc 1a 03 0e 3c c0 57 b6 3d 2c 31 bf bc
       -0.012842664 0.008667732 0.08903456 -0.023338877
0001b0 ff 39 6a bd 28 11 bd 3d 7a 3c b0 3c ca 6d 6e 3d
       -0.057184216 0.09231788 0.021513212 0.05821017
0001c0 f2 e2 ba 3d 93 c0 a9 3d c3 02 18 3d b1 a0 57 bc
       0.09125318 0.08288684 0.03711201 -0.01316087
0001d0 ae 90 fa 3c cf 0b 1a 3d 8e 6c 1c bd 47 d8 d3 3c
       0.030586567 0.037608918 -0.038189463 0.025859965
0001e0 e5 ba 46 bd 4c df 51 bc 7c f1 15 bd ac 65 14 3d
       -0.04851808 -0.012809586 -0.03660725 0.036229774
0001f0 18 36 82 3d 8d c5 82 bd a9 10 a1 3d 51 17 5e 3d
       0.06357974 -0.06385336 0.07864506 0.054221455
000200 74 a4 aa 3c 1b 5b 4e bd 72 f9 4d 3d 48 32 16 3d
       0.02083037 -0.050379854 0.050286718 0.036669046
000210 ee 38 48 3d 8e fc 71 3d 9c 12 ae bc 0c 21 c2 3d
       0.048882417 0.059078746 -0.021249108 0.094789594
000220 bc 53 85 3c be a6 3d 3d 6c c9 8f 3c a0 17 40 bd
       0.01627528 0.046301596 0.0175521 -0.04689753
000230 ff 18 89 3d 43 61 6c bd 83 6c 4b bd c0 09 27 bd
       0.06694221 -0.057709944 -0.04966403 -0.040780783
000240 2e eb 39 3e 8a 3b ed bc 95 1a 05 3d e7 ee dd bd
       0.1815612 -0.028959054 0.032496054 -0.10836583
000250 5a 6e 82 bd 43 51 38 3d b5 10 cb 3c 81 9a 7c bd
       -0.06368704 0.044999372 0.02478824 -0.061670784
000260 58 42 1d 3e dd 67 dc bd 98 58 19 be ea 17 68 bd
       0.1535734 -0.10761998 -0.14975202 -0.05666343
000270 65 2d bb ba ec 87 e2 bd e7 0b 0f 3b 1d f4 df bc
       -0.0014280496 -0.11061081 0.0021827163 -0.027338082
000280 ca 45 a1 bd 37 32 07 3e da bf 11 3e 01 49 70 bd
       -0.07874639 0.13202749 0.14233342 -0.058663372
000290 4a 95 4f 3d 2e 7e 1d be 40 87 8a bd 35 c8 74 3c
       0.050679483 -0.15380165 -0.06764078 0.014940311
0002a0 2b 82 aa 3c 7a 84 07 be f7 59 e3 3d 17 a2 8a bd
       0.020814022 -0.1323413 0.11101144 -0.067691974
0002b0 c1 84 87 bd 5e 4d 86 bc 46 e0 e2 bc cd 11 ba 3c
       -0.06617118 -0.016394313 -0.027694833 0.022713566
0002c0 0c 31 25 3d 03 a3 c2 bd 30 d6 2f 3e bc 3f 3c bc
       0.040329978 -0.09503748 0.1717155 -0.011489805
0002d0 47 6a 1e 3e fd 2a 3c 3c 6a 2c 1d bd ce 67 14 be
       0.15470229 0.011484859 -0.038372435 -0.14492723
0002e0 c9 c7 48 bc d6 b6 d4 bc 38 53 b4 bc 6a 96 07 3d
       -0.012254664 -0.02596609 -0.022012338 0.03310243
0002f0 cd 15 6f bc c7 9a 2f 3e e7 59 c1 bd 41 2c e9 bd
       -0.0145926 0.17148887 -0.09440976 -0.11385394
000300 df b9 85 bd 76 a5 0a be aa 88 12 bc ed 2d 82 bd
       -0.06529593 -0.13539681 -0.008943716 -0.06356416
000310 ad 55 d8 bd 15 6f fd 3d a2 8b a3 3d e7 5e 10 bd
       -0.10563216 0.12374703 0.07985617 -0.035246756
000320 6b c6 1b bc 66 54 9b 3c 50 6b 8c 3d ea c9 2d bd
       -0.009507756 0.018961143 0.06856406 -0.04242889
000330 82 30 af bd b0 c0 6a 3d e1 0c 8b bb 0e f6 28 3e
       -0.08554174 0.057312667 -0.0042434786 0.16500112
000340 a5 4f f2 bd 54 f7 34 3d b6 3c b1 bd 4e 7c 2a 3d
       -0.11831597 0.044181183 -0.08654158 0.041622452
000350 f5 ae 1c bd 47 d5 33 be 36 bd 66 3d 20 92 0c be
       -0.03825279 -0.17561828 0.05633279 -0.13727617
000360 90 05 8b bd 1c ce 35 3d 59 3f 8e bd 0a 19 8e bd
       -0.0678817 0.044386014 -0.06945676 -0.069383696
000370 e5 fd 07 bd f0 da 87 bc a8 ee 09 3d 5c 48 df 3a
       -0.033201117 -0.01658389 0.033674866 0.0017035115
000380 33 5f 55 3d 80 28 3f b8 6b 06 35 3d 8c 15 d3 3c
       0.052092742 -4.5575667e-05 0.044195574 0.02576711
000390 78 b3 0a bd a6 3b 09 3d 7f 0f 01 bd d8 fe 53 bd
       -0.03386256 0.03350415 -0.03150892 -0.05175671
0003a0 7c 07 26 3d b3 fe a4 3d 61 01 24 bd 10 c2 04 3e
       0.04053448 0.080563925 -0.040040378 0.12964654
0003b0 5a f7 26 3c 8f f9 d3 bb c2 3b 6c bd bc 75 2f bd
       0.010190809 -0.0064689587 -0.057674177 -0.04283689
0003c0 33 8c 5c bd ec 2f ab 3d 53 31 27 3e 7f b6 18 be
       -0.053844642 0.0835875 0.1632741 -0.14913367
0003d0 a1 e7 1c 3d cc 6f 3c bd 26 d8 51 bd 91 34 f0 bd
       0.038306836 -0.046005055 -0.051231526 -0.11728776
0003e0 9f 60 f3 bc 2d c0 22 bd cd 4e 68 3d 60 0f ce bc
       -0.029709158 -0.039734054 0.056715775 -0.025153816
0003f0 ea 45 2f bd 9b 81 0e 3e 7d 05 fe bb 55 76 43 bc
       -0.042791285 0.13916628 -0.007752119 -0.011930068

1.bias f4 [50]
000000 c5 4d 82 3d 4a c3 06 bd ab 00 3c bd 57 f6 79 3d
       0.063624896 -0.032901086 -0.045899075 0.061025944
000010 9d 18 d2 3d 44 c3 8d bd b2 48 70 3d ea 96 e2 bb
       0.10258601 -0.069220096 0.058663078 -0.006914963
000020 88 8b 35 3d 4a d7 40 bc 67 cc d3 bd 82 9f 86 3d
       0.04432252 -0.011770079 -0.10341721 0.065733925
000030 4e af 2b 3b f5 74 a0 bd 59 c0 84 bb 0f 3e 59 3d
       0.002619702 -0.07834808 -0.00405125 0.0530377
000040 27 c7 a9 bd 67 19 4a 3d 93 3c 6b 3b fb 41 76 3d
       -0.082899384 0.04934063 0.003589426 0.060121518
000050 8e 27 43 3d 8b 60 25 bd bc 65 02 3d 52 8d b2 3c
       0.047645144 -0.040375274 0.031835303 0.021795902
000060 b8 ce c2 3d 1a 9c af 3d 9a 08 53 3d f3 89 67 3c
       0.09512085 0.08574696 0.051521875 0.014132011
000070 f9 87 3d 3d 01 db 78 3d 0e e0 99 3c af 08 55 bd
       0.04627225 0.060755733 0.018783595 -0.052010234
000080 84 d7 3b bd 14 37 bc 3d a6 ae d2 bc 66 45 f1 bc
       -0.04585983 0.09190193 -0.025718044 -0.029452037
000090 4b b9 dd 3c 8b 72 98 3d b7 80 3c 3d 76 a7 7c bc
       0.027065894 0.07443722 0.04602119 -0.015420785
0000a0 19 f0 4e 3d d6 37 91 3d b3 41 b1 bb e4 d0 67 3d
       0.050521944 0.07090728 -0.0054094433 0.056595698
0000b0 bb e5 37 3c fe b5 43 3d d0 63 96 bc d1 f4 0b bc
       0.011224206 0.047780983 -0.018358141 -0.0085422555
0000c0 1b e2 6e bd 16 c8 6b 3d
       -0.0583211 0.057563864

3.weight f4 [10, 50]
000000 af cf 09 3e 62 19 3a 3e 45 70 9b bd d5 60 ea bd
       0.13458131 0.18173745 -0.07589773 -0.114442505
000010 06 9e 28 3e 93 39 86 3d 31 53 15 3c b2 ce 85 bd
       0.16466531 0.0655395 0.009114073 -0.065335646
000020 bb 67 ac bd 2e fa 10 3e 14 89 1f bd b7 a6 ff 3d
       -0.084182225 0.14157936 -0.038949087 0.1248297
000030 46 a9 93 bd 7d 80 8e ba 36 bc d9 3d d7 5b 1f 3e
       -0.07210021 -0.0010872033 0.106316015 0.15562378
000040 f9 46 7f bd 3c 02 1b 3e 96 4d 36 3e a5 23 1f 3e
       -0.062323544 0.15137571 0.17803034 0.15540941
000050 fc bb a7 3d da d9 2e 3e f8 2a 7a bd 45 98 b5 bc
       0.08190152 0.17075291 -0.061076134 -0.022167334
000060 ea 41 24 3e 75 e5 54 3c 3e 77 2f 3e 6c 33 d9 3d
       0.16040769 0.01299416 0.17135331 0.10605511
000070 fe 6a 05 3d c8 57 e4 bd b8 bd 8c bd d8 3d 6e bc
       0.03257274 -0.111495554 -0.068721235 -0.014541112
000080 80 84 58 3e af 5a a8 3d ed 56 20 3e 26 df ca bc
       0.21144295 0.082204215 0.1565816 -0.024764609
000090 85 43 93 3d 9e 2c c9 bc 71 16 d7 3d 92 74 93 bd
       0.07190613 -0.024557408 0.10502327 -0.071999684
0000a0 12 58 84 3d 0e bd 81 3d 8e 10 8d 3d dc 11 a0 3d
       0.064621106 0.063348874 0.06887923 0.078159064
0000b0 0b e5 b8 3d 6f ea ae bd 44 46 82 3c 3e df d1 3d
       0.090280615 -0.085408084 0.015902646 0.10247658
0000c0 92 14 c5 3d 07 85 df bd e5 05 08 be 51 9b 69 3d
       0.09623064 -0.10914045 -0.13283499 0.057032887
0000d0 d2 cf 99 3d db 35 b7 bd cc 00 37 bd 1d cd ee bc
       0.07510342 -0.08945819 -0.044678494 -0.02915054
0000e0 09 eb 26 bd 1c 69 d4 39 9e ee 5c bd b9 e2 d6 3b
       -0.04075149 0.00040514104 -0.0539385 0.006557789
0000f0 69 7b 0e 3d 26 69 b4 bd a6 ae 7f bd 12 4b 84 bd
       0.03478566 -0.08809118 -0.062422417 -0.06459631
000100 23 e0 0f be 69 c6 ec 3d 22 a5 41 3d ad 22 0b be
       -0.14050345 0.11561281 0.047276624 -0.13587447
000110 3d ff 7b bd ab 6f fd 3d 92 ae 99 bc 69 8e da bc
       -0.06152271 0.123748146 -0.01876 -0.026679235
000120 08 bf a3 bb 77 25 f0 bd c5 a4 a4 3d 12 fa 10 bd
       -0.004997138 -0.11725896 0.0803924 -0.035394736
000130 91 eb dc 3d d3 3f 96 bd 22 f3 02 be 4c 65 02 3e
       0.10787118 -0.07336392 -0.1278806 0.12733954
000140 43 22 4f ba f1 07 c7 bd 57 62 f6 3d 36 90 0d be
       -0.0007901529 -0.097183116 0.120304756 -0.13824543
000150 f8 72 73 3b 9a 47 bb bd fd 5c 93 3d e7 aa 12 be
       0.0037147384 -0.09144516 0.071954705 -0.14323007
000160 f5 4f 75 3d 4c 8c be bd 9c 88 46 3d 02 ce 4e bd
       0.059890706 -0.09304103 0.048470125 -0.050489433
000170 b7 b6 18 be d5 2a f0 3d 14 df 14 bd 60 86 15 be
       -0.1491345 0.117269196 -0.036345556 -0.14602041
000180 1c 24 a3 bd d0 bd f5 bd 16 21 0b bd 10 c6 d4 3d
       -0.07965872 -0.119990945 -0.0339671 0.1038934
000190 95 69 ac bd 14 2c 35 3d 1e 3a d9 3c 23 c0 da bc
       -0.08418576 0.04423149 0.02651697 -0.026702946
0001a0 cb 2a 80 bd a4 9e 33 bd c3 7e f0 bb f2 1a 96 bc
       -0.06258162 -0.043852463 -0.00733933 -0.018323395
0001b0 16 db 93 bd 9f ee a8 3d a7 12 98 bd 41 3a 80 3d
       -0.07219522 0.08248638 -0.07425433 0.06261111
0001c0 e5 94 25 b9 cb 7c 54 3c 35 ec b0 3d 14 71 e8 3d
       -0.00015791094 0.012969206 0.08638803 0.11349693
0001d0 fc 37 b6 3d e0 8b 12 be 69 e5 0e be 06 91 a5 bd
       0.08897397 -0.1431117 -0.139547 -0.08084302
0001e0 88 de f3 3c b2 f7 ad 3d 4c f4 f9 bd 0e d0 70 3d
       0.029769197 0.0849451 -0.12204799 0.058792166
0001f0 b0 4d 47 bd c5 3f 37 3d b3 75 19 bc 33 ec e1 bc
       -0.048658073 0.04473855 -0.009366441 -0.027578449
000200 a2 a9 dc 3d 55 fb a1 3d 7a b0 dc bc e7 22 19 bd
       0.107745424 0.07909266 -0.02693962 -0.0373868
000210 f2 a5 80 3d ae 84 ba 3c e5 31 82 bd 88 f4 a7 3d
       0.062816516 0.022768345 -0.06357173 0.082009375
000220 42 07 03 be ac 36 d6 3d 0f 46 f5 3c 60 73 fb 3d
       -0.12795737 0.104596466 0.029940633 0.122778654
000230 85 47 fd bd 00 0a b4 bd b8 ed 15 be 4b bd 91 bd
       -0.12367157 -0.0879097 -0.14641464 -0.07116183
000240 91 67 53 bd 25 6a 76 3d 00 3a de bd 75 2a 2b 3d
       -0.05161244 0.06015982 -0.10850906 0.041788537
000250 83 13 c3 3c c6 50 9d 3d 28 d0 8b bd f6 b6 fd bc
       0.023813015 0.07681422 -0.06826812 -0.030971032
000260 70 18 a7 bd df 9f 1c be 43 5f 79 bd c2 25 5f bd
       -0.08158958 -0.15295361 -0.060881864 -0.054479368
000270 66 1a dc bd 1d e7 0d be dd 48 f6 bd d0 c6 d2 3d
       -0.107472226 -0.13857694 -0.12025616 0.10291827
000280 fb a0 04 be 9d 13 fd 3d b5 0a 84 3c 68 6c e9 3c
       -0.12952034 0.123572566 0.016118387 0.028494075
000290 25 4e de 3d 2f bf 9e bd 79 09 81 3d 37 67 01 bd
       0.10854749 -0.07751309 0.06300635 -0.031592574
0002a0 cf 14 04 be 2a 32 a2 bd df d1 bc bd b8 28 ac bd
       -0.12898563 -0.07919724 -0.09219717 -0.08406204
0002b0 a0 08 ef 3d cf cd 12 be 03 a2 7e 3d e4 83 f2 bd
       0.11671567 -0.14336322 0.062166225 -0.118415624
0002c0 6f e4 cd 3c 2d c6 c7 bd f4 09 be 3d d1 ec c6 3d
       0.02513334 -0.09754596 0.09279242 0.09713138
0002d0 0d 72 63 3d 28 b7 c8 3c de e8 d4 3c c4 2d e2 bd
       0.05552869 0.024501398 0.025989946 -0.11043885
0002e0 09 12 d1 bd c6 77 d7 bc 04 cc d5 3d fd 88 9f 3d
       -0.10208518 -0.02630223 0.104393035 0.077898
0002f0 78 90 a6 3d 2c 0e fd 3c 30 3e 80 bd d1 6c 22 3d
       0.08133024 0.030890547 -0.06261861 0.039654557
000300 03 53 74 bd 28 71 1a bd 40 2e 69 3d 28 39 8b bd
       -0.05964948 -0.03770557 0.056928873 -0.06798011
000310 60 00 20 be 5d a1 65 bd 14 6e 0b be 2e fa ef bc
       -0.15625143 -0.05606209 -0.1361621 -0.0292941
000320 5a 96 88 bd f5 52 87 3e 53 1a 1c 3e 50 df a4 3c
       -0.06669302 0.2643048 0.15244417 0.020126015
000330 c8 21 21 3e 46 81 96 bd 93 4d 4b 3e a7 c3 31 3e
       0.15735543 -0.07348876 0.19853811 0.17359792
000340 68 8e 59 3d d6 d3 5c bd b9 f8 ec bd c3 52 0a 3e
       0.053114325 -0.05391296 -0.115708776 0.13508134
000350 90 f2 f8 3d 52 ac e6 bd a0 5b 16 3e 72 8a 08 3e
       0.1215564 -0.11263336 0.1468339 0.13334063
000360 cf 2d 23 bd 90 87 a6 3b 0d 5d 24 3d 06 53 7f 3d
       -0.03983861 0.0050820783 0.040127803 0.062335037
000370 5b 99 0a 3e 7e e4 b2 3b 9f 32 80 3d 16 13 b5 bd
       0.13535063 0.0054593673 0.06259655 -0.08841531
000380 a6 66 34 3e 75 d6 25 bd c1 b4 08 bd 78 27 54 bd
       0.17617282 -0.040487725 -0.033375505 -0.051795453
000390 f2 f4 08 bd 3a 23 69 3b de a6 de 3d bb 7b a4 3d
       -0.033436723 0.0035573975 0.10871671 0.08031412
0003a0 d3 20 2a 3e eb a1 ab 3d ce 6a 98 3d ca 0e a3 3c
       0.16614084 0.08380493 0.074422464 0.019904513
0003b0 33 48 0c 3e c8 a7 6d 3c 8d ac 60 bd cd d3 1f 3e
       0.13699417 0.014505334 -0.054852057 0.1560814
0003c0 97 86 a5 3d f5 3a 20 3e 24 eb 9e bd 04 e0 c4 3d
       0.080823116 0.1564749 -0.07759693 0.0961304
0003d0 10 90 04 3e 80 49 90 bd c9 63 1e 3e 5d 99 c0 3d
       0.1294558 -0.07045269 0.15467753 0.09404252
0003e0 08 be 85 bc 10 96 dc 3c 5d 3d 1d 3d 3e 45 a9 3d
       -0.016325966 0.026927024 0.0383886 0.0826516
0003f0 27 44 c7 3d ca 1d bc bd f1 a2 12 3e 1e d9 ad 3c
       0.09729796 -0.09185369 0.1431997 0.021221694

3.bias f4 [10]
000000 97 d5 fc 3d c2 18 e7 3c f4 53 28 bd 17 3e 10 bd
       0.123454265 0.028210048 -0.04109569 -0.035215463
000010 5f 41 d5 bd 42 e8 12 3d 89 25 8e bd 17 95 dc 3d
       -0.10412859 0.03586603 -0.06940753 0.10770624
000020 d9 e3 67 bb f3 73 c6 bd
       -0.003538361 -0.09690084

5.weight f4 [1, 10]
000000 12 1a 7e 3e fd e6 84 be 3a ac 19 be 01 2f 47 be
       0.24814633 -0.2595748 -0.15007105 -0.19451524
000010 2b 76 6c 3e 74 e3 fa 3d c2 db 58 3e 14 3a 61 be
       0.23091953 0.122504145 0.21177581 -0.21994811
000020 08 5f 76 3e 4c ab d4 3e
       0.24059689 0.4153694
