Final Report/2x2x2/model_3.pth (torch, 33311 bytes, 5 tensors)

1.weight f4 [50, 144]
000000 57 82 09 3e 38 f0 94 3d cf fd 2a bc d3 ee aa 3c
       0.13428627 0.072723806 -0.010436489 0.020865833
000010 23 84 9c bd a9 4c 00 3c 59 b7 03 3d 26 66 83 3c
       -0.076423906 0.007830777 0.032157276 0.01603992
000020 59 9d ed 3d c5 87 6d 3d 8b 17 5f 3d e1 69 6d 3c
       0.11602277 0.057990808 0.05446581 0.0144905755
000030 87 e4 7c 3d e2 5c 98 3d 64 67 da 3d 40 c8 0b 3b
       0.06174138 0.07439591 0.106642514 0.0021329075
000040 81 8c 03 bc e0 bb 8d 3d 18 42 00 3c 7d c6 b6 3d
       -0.008029104 0.069206 0.007828258 0.089245774
000050 21 64 c2 3d cf 91 8a 3c 0c 7e 42 bd d7 0c 1c bd
       0.09491754 0.01691523 -0.04748349 -0.038098183
000060 86 10 b1 bc b0 4a 8f 3d a9 89 18 3e 51 85 80 3b
       -0.021614324 0.069966674 0.14896263 0.0039221426
000070 d1 94 79 bd 1c 1c 18 bd 8f ea a8 3b dc 16 9e bd
       -0.060932938 -0.037136182 0.0051549147 -0.07719204
000080 9b a4 04 bc 3f 59 55 3d b4 02 86 3d ec e4 3d 3d
       -0.008095886 0.052087065 0.06543484 0.046360895
000090 c6 de 1a 3e f0 ef 35 3d a5 89 b7 bd b9 22 81 bd
       0.15124044 0.044418275 -0.089618005 -0.06305451
0000a0 ed a9 b5 3d fd 4d af 3d 2d f3 4b bc 7d 81 98 bd
       0.088703014 0.08559797 -0.012448114 -0.07446573
0000b0 6a 11 94 3d 0c bd a8 3d f7 58 a4 3d a1 9c 98 bc
       0.07229884 0.08239183 0.08024781 -0.018629374
0000c0 0f 90 84 3d 7c d9 01 bb 35 18 5c 3d be 6f 97 bb
       0.064727895 -0.0019813469 0.053734023 -0.004621475
0000d0 59 22 88 3d e2 17 fb 3d 69 09 b2 3b b7 6b c4 bb
       0.06647176 0.12260415 0.0054332507 -0.005994286
0000e0 7d c0 b8 bc eb fb 0d bd 71 8d 4d 3d 99 0b 64 bd
       -0.022552723 -0.034664076 0.050183717 -0.055675123
0000f0 85 d2 00 bd 73 1c 1e bd a0 c0 90 3d e8 d1 9c 3d
       -0.031450767 -0.03860135 0.0706799 0.07657224
000100 1a 26 68 3d 39 fa 4b bc 3e 18 3d 3b 5f 2d 50 bd
       0.05667696 -0.012449794 0.002885356 -0.05082452
000110 87 8e 5b bd 34 6c 72 3d 66 9a a9 3d 57 4c 81 bd
       -0.05360272 0.05918522 0.08281402 -0.06313389
000120 d7 13 40 bd fd 4d 40 3e 67 4a 0c bd 2b 05 04 3c
       -0.04689392 0.1877975 -0.034250643 0.008057873
000130 f7 0b 8c bd 5c 99 ff bb 22 08 59 3d b8 07 93 3d
       -0.068382196 -0.0078002643 0.05298627 0.071792066
000140 0d 5c 51 3d 65 36 2e 3c ba 6d 86 3d 8c 16 a7 bc
       0.051113177 0.010633086 0.065638974 -0.020396493
000150 bb 1a a4 3c d9 4c 4b 3c f5 e6 42 3d 60 cc 1e bc
       0.020032277 0.012408459 0.04758354 -0.0096922815
000160 68 30 12 3d a2 2d a7 3c 03 cc 28 bd 68 67 0d 3d
       0.035690695 0.020407502 -0.041210186 0.034522444
000170 3b ea 85 bd a1 6b 27 bd 25 b4 43 bc 0b 70 7d bd
       -0.065388165 -0.040874127 -0.011944805 -0.06187443
000180 93 15 70 3d 83 bc 52 bd c3 b6 8d 3d 91 ca 6d 3d
       0.058614325 -0.05144931 0.06919625 0.05805451
000190 d7 22 54 bb e8 bf f4 3c fb fe 89 3d 4d 8e 16 3d
       -0.00323694 0.029876664 0.06738087 0.036756802
0001a0 e5 29 a4 bd 67 c8 aa 3d 0c f3 37 3e e7 5d 8d 3d
       -0.08015803 0.08339005 0.17963809 0.06902676
0001b0 c3 05 5d bd d0 53 e0 3c 29 a4 8d bd b9 85 46 3d
       -0.053960573 0.027383715 -0.06916077 0.04846737
0001c0 df 19 20 3d d3 d4 1d 3b 60 e5 83 bd ca 0f a6 bc
       0.039087173 0.0024083152 -0.06440234 -0.0202712
0001d0 be 01 8c bd 0f f8 82 3d 03 59 4c bc 91 bb a7 bc
       -0.0683627 0.0639497 -0.012472394 -0.02047518
0001e0 c3 e7 1e 3d da 98 af 3c 15 3c 8b 3c 96 d7 b8 3a
       0.038795244 0.02143519 0.016996423 0.0014102336
0001f0 77 74 bc bd bb 97 d5 3d 80 e5 3e 3b 58 6f 3c bd
       -0.092019014 0.10429331 0.0029128492 -0.046004623
000200 91 b1 86 3d eb 5d 9a 3d 3f 11 8e bd 4a a7 55 3d
       0.06576837 0.07537445 -0.06936883 0.052161492
000210 d9 ef 94 3d c0 74 e0 3b 02 ff 97 bd 80 8f 27 bd
       0.0727231 0.006849855 -0.07421686 -0.040908337
000220 40 99 45 3c 10 1d 29 3d 24 e1 88 3c a6 ae 66 bd
       0.012060463 0.04128748 0.016708918 -0.0563189
000230 9c c4 fc 3c 49 b1 80 3d 24 ba 45 3d 1e bb 5b 3d
       0.03085547 0.062838145 0.04827322 0.053645246
000240 83 af bd bd dd f1 f1 bc f4 61 99 bd 24 49 ad ba
       -0.09261992 -0.029534275 -0.07489386 -0.001322065
000250 ed de 2b 3d 44 47 16 3d 1c 48 0a 3d b7 0a 4d bd
       0.041960645 0.036689058 0.033760175 -0.050059047
000260 de 13 24 bd 35 55 60 bd 64 08 84 3d 27 12 bb bd
       -0.04005801 -0.05476876 0.06446913 -0.09134322
000270 cd 7f 5d 3c 48 e2 03 3d 03 18 17 3c 40 17 b5 bc
       0.01351924 0.03219822 0.009222033 -0.022105813
000280 b0 a1 d2 bc c0 18 76 bc 44 5d 87 3c 9c 6b 6a bd
       -0.025711864 -0.015020549 0.016523965 -0.05723153
000290 9b 9e 71 bc 7e c0 ae bd 8a be b3 bd d8 12 28 bd
       -0.014747287 -0.08532809 -0.08776577 -0.041033596
0002a0 2f a0 6b 3d 4f c7 a9 bd 47 0a 85 3d 43 ea 3a 3d
       0.05752581 -0.08289968 0.06496101 0.045633566
0002b0 83 17 b7 bd 76 6b a9 bc 5b bb 44 bd 25 be c4 bd
       -0.089400314 -0.020681124 -0.04803024 -0.0960658
0002c0 a2 2b 7e 3b fd 7c 71 bd 69 62 31 bd 16 79 16 3d
       0.0038783331 -0.05895709 -0.043306742 0.03673657
0002d0 c2 2d de 3c 8b c3 9c bd 36 5f a9 3a b1 8e 7c 3d
       0.027121428 -0.07654484 0.0012922052 0.06165952
0002e0 d2 18 c2 bd 8e 9c ab bd fc 55 5b 3d 05 f7 0c bd
       -0.0947739 -0.0837947 0.053548798 -0.034415264
0002f0 19 46 4d 3c ce a6 ea bc b8 d2 83 bd ca 18 c8 3b
       0.01252892 -0.028643992 -0.06436676 0.0061064707
000300 92 2d 9b 3b 1a 10 32 bd 59 fc 5c bd 72 10 df 3c
       0.004735657 -0.043472387 -0.053951595 0.027229521
000310 31 37 1a 3c a5 58 9a 3c c2 6a 7e bd c3 7c 9f bc
       0.009412573 0.018841097 -0.06211353 -0.01946867
000320 db a6 c5 bd f1 d2 3c 3d 40 38 83 bd de 15 ad bd
       -0.09650966 0.046099607 -0.06407213 -0.084514365
000330 41 61 88 bc 62 9c 63 bd 1b 42 04 bd 84 9e 0d 3d
       -0.016647937 -0.05556906 -0.032289606 0.034575
000340 85 ec 59 bd 53 ff 3b bd 25 68 c8 bd f8 40 8e 3c
       -0.05320408 -0.045897793 -0.09785489 0.017364964
000350 8a 8f c1 bd d9 33 be bd ad 75 be 3b 4b 97 82 3d
       -0.09451206 -0.09287233 0.005812368 0.06376513
000360 0d f8 93 bd 10 c3 ad 3c 58 1e 96 bd b7 2d d2 bd
       -0.07225046 0.021211177 -0.07330006 -0.10262626
000370 26 67 69 bd ec 01 8d bd e8 6a 85 bc 95 14 af 3c
       -0.056983136 -0.06885132 -0.016286328 0.021372119
000380 33 8b a8 bd f4 84 9c bd 5e d8 a9 bd 1d b3 81 3c
       -0.08229675 -0.07642546 -0.08293222 0.015832478
000390 e7 b4 fb 3b e2 e1 8f bd ab 51 a3 3b b1 57 3c bd
       0.0076814773 -0.070255056 0.004984101 -0.045982067
0003a0 a5 09 cd bd 91 5a 15 3d ff 81 7b bd f9 6c 8a bd
       -0.10011605 0.036463324 -0.06140327 -0.06759066
0003b0 84 75 33 bd 71 93 e8 bc 3d 42 6d 3c f8 51 b5 bd
       -0.043813244 -0.028390618 0.0144811245 -0.08853525
0003c0 25 c8 0e bd 22 97 b4 b9 9a 98 56 3d 07 76 b6 bd
       -0.03485884 -0.00034444878 0.052391626 -0.08909231
0003d0 8d bf 1a 3d 96 8d 83 bd 88 ca 22 bd fe 35 ca bd
       0.037780333 -0.0642349 -0.03974393 -0.098735794
0003e0 75 3b 0e 3b e6 e1 43 3d 4f 49 80 3c 48 ee b6 bd
       0.002170292 0.047822855 0.015659956 -0.08932167
0003f0 74 89 e1 3c 0f fa 5d 3d 09 f7 b8 bc 89 1b 9c 3c
       0.027531363 0.054193553 -0.022578733 0.019056099

1.bias f4 [50]
000000 66 de 04 3d 9a a9 27 bd 07 35 15 3e a4 a5 41 3b
       0.03243866 -0.04093323 0.1457101 0.0029548192
000010 04 b1 c4 bc 97 f2 a5 3d 9f da 95 bd 70 57 82 3d
       -0.024010189 0.08102911 -0.07317089 0.06364334
000020 7c ba ea 3c 80 07 50 3d 2a 74 5a 3d 01 61 7a 3d
       0.028653376 0.050788403 0.05333344 0.061127666
000030 83 57 1a 3d 80 cd 0b 3b 38 7e a9 3d 54 51 d4 3d
       0.037681114 0.0021332204 0.082760274 0.103670746
000040 79 d6 42 bc 3e 01 85 bc c7 be c0 3c 11 2b 12 3c
       -0.011891955 -0.016235944 0.02352847 0.008921401
000050 bc 2a d8 3d 0a 13 1a bd b8 00 33 bd d5 46 48 3d
       0.10555026 -0.037615813 -0.043701857 0.048895676
000060 f3 78 a4 3c 05 af 53 3c af 76 c0 3c f0 33 52 3d
       0.020077204 0.012920146 0.023494093 0.051319063
000070 96 69 d1 bc 8f 97 25 3d 14 15 0d bc 53 6c 60 3d
       -0.025563043 0.04042774 -0.008610982 0.054790806
000080 0d 9e c5 3b fb b7 39 bc ee a6 c2 bc 47 3e bb 3d
       0.006030804 -0.011335368 -0.023761239 0.09142738
000090 5e 37 3e bd 53 cd 58 bd d1 70 e8 3d ee 7a c6 3d
       -0.04643952 -0.052930187 0.11349643 0.09691416
0000a0 5d c1 de 3c c3 68 e5 3d 21 53 86 bc 8e 85 51 3d
       0.027191812 0.11201622 -0.01639706 0.05115276
0000b0 85 bc 65 3d 12 f0 3e 3a b7 12 0c 3d 3f 28 28 3d
       0.05608799 0.0007283698 0.034197535 0.041054007
0000c0 05 fc 9e bd 71 75 ac 3d
       -0.07762913 0.08420838

3.weight f4 [10, 50]
000000 ad 6e c4 3d 6a cf b1 3c 5b 67 43 3e 71 73 26 3e
       0.09591422 0.021705348 0.19082396 0.16254975
000010 1e 1b 31 bd 3f 03 60 3c ed e0 c8 bd 00 a4 75 3c
       -0.04323875 0.013672649 -0.09808526 0.014992714
000020 0e 38 60 bd fb 09 4b 3e ef bf 0d 3e d0 7a c2 3d
       -0.054740958 0.19828026 0.13842748 0.09496081
000030 01 f0 43 3e a6 b1 86 3e 0b f3 f6 3d 85 76 f8 3d
       0.19134523 0.2630741 0.120580755 0.12131981
000040 76 c9 8c 3d d2 c8 3a 3e 52 4d 98 3d 1b 94 ab 3d
       0.06874363 0.1824067 0.07436623 0.08377858
000050 71 39 e8 3c e2 d0 1d 3e 93 56 a6 bc 0a 78 fb 3d
       0.028347703 0.15411714 -0.020304954 0.12278755
000060 1c b5 72 3c 82 69 b5 3d 9c dc a7 bc 20 ea 12 3c
       0.014813688 0.08858015 -0.020490937 0.008966953
000070 a7 ee f7 bb 87 cd 00 3e cf 84 bf bd cb f1 0d 3d
       -0.0075662914 0.12578402 -0.09351503 0.03465442
000080 f9 88 d5 bd da 13 26 3e 35 3f 66 3e 9d 07 4e 3c
       -0.10426516 0.1621851 0.22485049 0.012575057
000090 05 3c 65 bd b6 14 88 3d ec f9 92 3d 4c c1 4b 3e
       -0.055965442 0.06644575 0.07176575 0.19897956
0000a0 01 d2 10 3e 60 6f 46 3d e6 3a 6a 3d b7 0b 95 bd
       0.1414261 0.04844606 0.057185076 -0.07277625
0000b0 11 c5 3c 3d 83 24 80 bd 51 ce 58 3d be 56 38 bd
       0.046086375 -0.06256964 0.052931134 -0.0450046
0000c0 9a 17 9b bd 22 61 84 bd 36 6c 34 3d 36 c5 52 3d
       -0.07572861 -0.06463839 0.04404851 0.051457606
0000d0 78 49 10 be f0 bb 95 bd 4d 8a ba bd 75 24 91 bc
       -0.14090526 -0.07311237 -0.0910841 -0.01771758
0000e0 93 2d 56 bc f7 f7 ef bc 7d ed 2b be 57 ba f5 bd
       -0.013072389 -0.029293044 -0.16789813 -0.11998432
0000f0 f8 70 c3 bd c2 c9 05 be 33 ff c6 bd 7c 61 98 bd
       -0.095430315 -0.13065246 -0.09716644 -0.07440469
000100 7e ab 72 3d fe 5e 54 3d ba ac 0f be a4 5a e7 bd
       0.05924558 0.051848404 -0.14030734 -0.11296585
000110 31 6d 50 3d f9 64 3b 3d b3 f6 07 be 76 87 10 be
       0.050885383 0.045750592 -0.13277702 -0.14114174
000120 46 80 bc 3d d9 5a 3d 3d 4f 53 e8 bd 11 bd 40 bb
       0.09204154 0.046229217 -0.11344015 -0.0029409567
000130 98 83 9b bd ce 7d 44 3d 16 68 39 3d 50 73 ca 3c
       -0.07593459 0.04797154 0.04526528 0.024713188
000140 4d 57 57 bd 88 66 d2 3d 34 2f 1b 3d 10 b1 88 3d
       -0.05257349 0.102734625 0.037886813 0.06674397
000150 24 26 6d 3d 5a 14 a8 bd 38 b3 f7 bd eb b5 b8 bd
       0.0578977 -0.08207007 -0.1209473 -0.09019073
000160 bc f8 9b ba fb dd c4 3d ca 0f 88 bd 6e dd ae 3c
       -0.001189969 0.09612652 -0.066436365 0.02134582
000170 64 bb 4d 3c 5c 7a 4f 3c 39 4a 82 3d bd 0b bd 3d
       0.012556884 0.01266345 0.06361813 0.092307545
000180 57 31 91 bd 6f 89 a7 3d 4d 39 4c 3d e1 3b a4 3d
       -0.07089489 0.0818051 0.049859334 0.080192335
000190 38 94 2d 3e 19 d3 ab 3d df 23 8e 3e cf c5 38 3e
       0.16951072 0.08389873 0.27761742 0.18044208
0001a0 c1 da 56 bd 2c a0 06 3e bc 23 40 3d a5 6b 60 3d
       -0.052454714 0.13147038 0.04690908 0.054790158
0001b0 ab 2a fb 3d 8c 66 18 3d 9c 43 e3 bb 02 b6 14 3e
       0.12263998 0.03720717 -0.00693555 0.14522555
0001c0 e8 19 44 3e b8 26 59 3e 8c 30 85 3d ca 33 84 bd
       0.19150507 0.21206176 0.065034 -0.064551905
0001d0 b3 93 9b 3d c8 69 dc 3d c6 eb 8e bb f8 ba a6 3b
       0.07596531 0.10762364 -0.0043616025 0.0050882064
0001e0 ee 72 35 3e 28 c3 33 3d b0 0f c7 3d 12 df 28 3e
       0.17719623 0.043887287 0.09719789 0.16491345
0001f0 93 c4 3e 3e b6 0b 06 3e ea 15 c3 3d 4b bd 04 3e
       0.18629675 0.13090405 0.09525664 0.12962835
000200 04 19 25 bd 2d bd 1c 3e a2 a6 39 bd 22 eb 89 3d
       -0.04030706 0.1530654 -0.04532493 0.06734301
000210 17 da 90 bd 7b 4f d5 3c d0 09 7e 3d d6 0a 46 3e
       -0.07072847 0.026038876 0.062021077 0.19340071
000220 39 90 9f bb 39 27 82 3c 90 25 8f bd a7 ec 8c 3e
       -0.0048694876 0.015887843 -0.06989586 0.275243
000230 47 4e d2 3d 86 b8 0b 3c 80 13 59 3e 3d ae 04 3e
       0.102688365 0.008527881 0.21198845 0.12957092
000240 86 ed de 3d e5 bb 55 3b 62 38 3c bc df 3c 1a 3e
       0.10885148 0.0032613215 -0.011488052 0.15062283
000250 8f 2d 7a bd 69 47 09 3e 37 8c 01 3e 9c 17 b3 bd
       -0.061078604 0.13406147 0.12651144 -0.087447375
000260 f4 7a a0 3d e0 13 a7 3c 67 4a 02 3d e9 43 3a 3e
       0.078359514 0.02039522 0.031809237 0.18189968
000270 95 ce 13 3e c8 57 29 3e d2 c1 21 3e f8 1c 60 bd
       0.14434274 0.16537392 0.15796593 -0.054715127
000280 f6 24 66 3d f6 3b 71 3c 8b 5a 23 3d cc fd 28 3e
       0.056187592 0.014723768 0.03988127 0.16503066
000290 27 8f 51 3e 40 80 10 3e 3b 5e 0a 3e c2 78 82 bc
       0.20464765 0.14111423 0.13512509 -0.015926722
0002a0 81 03 9b bd 3a d7 ca 3d 04 61 3b 3e 18 3f 83 3d
       -0.07569028 0.099043325 0.18298727 0.064085186
0002b0 f4 09 9f bd 95 a6 b4 bb cf 43 5c 3d 86 1a ca bd
       -0.0776557 -0.005513022 0.053775605 -0.0986834
0002c0 cd ca 31 bd 66 8f 0a 3e 23 15 d1 bc 64 47 bf 3d
       -0.043406297 0.13531265 -0.025522774 0.093397886
0002d0 77 a5 8b 3c c8 71 2a bc 23 88 8b 3d 74 96 09 3e
       0.017046673 -0.010403104 0.068130754 0.134363
0002e0 0e a5 18 3e fa 18 00 3e be d9 b7 3d 9a 3c 01 3e
       0.14906713 0.12509528 0.08977078 0.12620774
0002f0 ae 87 06 3e 96 69 56 3d b6 8e 1c 3e 1c 7f 42 3e
       0.13137695 0.05234679 0.15288815 0.18993801
000300 69 55 a8 3d d7 70 0d 3e 8f 41 1b 3e 0b 4e 9e 3c
       0.08219416 0.13812576 0.15161727 0.019324323
000310 05 79 89 bd a2 e9 97 3c 7b 09 ee ba b9 1a ed 3d
       -0.06712536 0.018544022 -0.0018160784 0.115773626
000320 21 32 98 3d 86 cb 86 3d 9f c8 fb bd 6d 8f 52 3d
       0.07431436 0.06581788 -0.12294125 0.051406313
000330 11 31 84 bd 9f 6c c5 3d f6 85 71 bd 43 5e 97 bc
       -0.06454671 0.096398585 -0.058965646 -0.018477565
000340 a7 cb 51 bd b2 99 20 3d ff f8 00 3c 80 47 0d be
       -0.05121961 0.039209075 0.007871865 -0.13796806
000350 e0 6f 99 3d 4f ee c3 bd ad 4b be bc b8 3d 26 bd
       0.074920416 -0.09566938 -0.023229444 -0.040586203
000360 4b 05 6d 3d 6d 66 6b 3d 84 01 07 3e 07 5f 5c bd
       0.057866376 0.057470728 0.13184172 -0.053801563
000370 23 c0 8a bd 4a 95 e6 3d b0 c6 11 bd ef e6 97 bb
       -0.067749284 0.112589434 -0.035589874 -0.0046356837
000380 a4 1c 02 be c8 39 78 3c 1a 91 a0 bd 49 a8 fd 3c
       -0.12706238 0.015150495 -0.07840176 0.030964034
000390 47 43 8b bd 5a 86 c6 bd c0 b5 26 bd ac da f4 3d
       -0.067999415 -0.09693594 -0.040700674 0.11955771
0003a0 71 d2 a9 3d 8a ba fb 3d 06 ed c9 3d 63 98 6f bc
       0.08292092 0.12291439 0.09859662 -0.014623734
0003b0 1c b1 f9 3d 2f 84 e0 bd 8c 50 12 be 5e b1 5c 3b
       0.12191984 -0.10962712 -0.14288539 0.0033675055
0003c0 fa 7c 07 3e fa 37 91 3b 7e 8e c1 3c c3 2e cf bd
       0.13231269 0.0044317218 0.023627516 -0.10116341
0003d0 fd 6d 17 bc 4e 94 b7 bd ce 4b 83 3c bf 9c da 3d
       -0.009242532 -0.08963834 0.016027357 0.10674428
0003e0 5c f1 cf 3d a7 76 70 bb c3 4c 9f bd 1b 63 ca bc
       0.101534575 -0.0036691816 -0.07778313 -0.02470546
0003f0 cc e5 b4 bd 62 e5 44 3d f2 6f db bd c6 01 e8 bd
       -0.08832893 0.04807032 -0.10714711 -0.11328463

3.bias f4 [10]
000000 34 b7 1f 3d 40 0e 62 3d b7 72 b3 3c cf 33 3b bd
       0.038993075 0.05518937 0.021905286 -0.045703705
000010 77 92 0e be 99 22 c4 3d 0f 96 d7 3d 39 e9 8d 3d
       -0.1392306 0.095769115 0.10526668 0.06929249
000020 34 6b cb bc 25 b5 ae 3d
       -0.024831392 0.08530644

5.weight f4 [1, 10]
000000 c2 84 ba 3e 6a 12 86 bc d1 1e bb 3d 22 3f 79 3e
       0.3642941 -0.016366202 0.09136737 0.2434049
000010 33 20 88 be cc 95 ab bb a0 bf d9 bd 0e 4b 20 3e
       -0.26587066 -0.005236363 -0.10632253 0.15653631
000020 9f c6 1c bb 12 ce 8b bd
       -0.0023922098 -0.06826414
