Final Report/2x2x2/model_4.pth (torch, 33311 bytes, 5 tensors)

1.weight f4 [50, 144]
0	0x3dd596d1	0.104291566
1	0x3d77714e	0.06041079
2	0x3ca7c783	0.020480877
3	0x3d4cc43d	0.049991835
4	0x3dba115b	0.090853415
5	0x3df05b62	0.1173618
6	0x3cbaf5f6	0.022822361
7	0x3c1f751f	0.009732514
8	0x3e38009c	0.17968982
9	0x3d3d7596	0.046254717
10	0x3b2c61fe	0.0026303525
11	0x3caf8e33	0.02143011
12	0xbcc5f40a	-0.024164218
13	0xbd1cc783	-0.038276207
14	0x3c751ff7	0.014961234
15	0xbd2f60ba	-0.042816855
16	0x3d27bf7c	0.040954098
17	0x3d9c5513	0.07633414
18	0x3e1c39e4	0.15256459
19	0x3da0409b	0.078248225
20	0x3c5d0e11	0.013492123
21	0x3c1bb2f2	0.009503113
22	0xbd4d718b	-0.05015711
23	0xbd12af2c	-0.03581159
24	0x3d8dbbe5	0.06920604
25	0x3d0cedd7	0.03440651
26	0x3e3357cf	0.17513965
27	0xba27df80	-0.00064038485
28	0x3dd6db01	0.104909904
29	0xbcdc4e2a	-0.02689274
30	0xbcab005b	-0.020874193
31	0xbd3c32af	-0.045946773
32	0x3d18f39b	0.037341695
33	0x3d480855	0.04883607
34	0x3dfb30d8	0.122651756
35	0xbae734cc	-0.0017639636
36	0x3e114e40	0.14190006
37	0x3ddebe81	0.108761795
38	0x3da93dbc	0.08263728
39	0xbd0efe4a	-0.034910478
40	0x3cbde2bd	0.023179406
41	0x3d7b673d	0.061377753
42	0x3d4466f5	0.04794975
43	0x3dcf3625	0.10117749
44	0xbcf471c5	-0.029839406
45	0x3e2c9d2f	0.16856836
46	0x3ce6d830	0.028179258
47	0x3d3d49c6	0.046212934
48	0x3db88b12	0.090109006
49	0xbc938b54	-0.018010773
50	0x3e00bca3	0.12571959
51	0xbc07d52f	-0.008290573
52	0xbb2b2ba3	-0.0026118539
53	0x3e2d24da	0.16908589
54	0x3df48574	0.11939517
55	0x3c8ae150	0.01695314
56	0xbcdd9b01	-0.02705145
57	0x3de6818e	0.11255179
58	0xbccb585f	-0.024822412
59	0xbcb313cc	-0.021860026
60	0x3da40429	0.08008606
61	0x3daa939b	0.08328935
62	0x3dc59403	0.096473716
63	0x3dbc4ec4	0.09194711
64	0x3da92695	0.08259312
65	0x3cb5b3a0	0.022180378
66	0x3d8a7607	0.06760793
67	0x3d9739b5	0.073840536
68	0xbcae3efb	-0.021270266
69	0x3d14c13a	0.036317088
70	0x3e2a2908	0.16617215
71	0x3c9a1061	0.018806638
72	0x3d8f3838	0.06993145
73	0x3e665aec	0.22495621
74	0x3d8bf34c	0.068335146
75	0x3d03d93d	0.032189596
76	0xbd194f7e	-0.037429325
77	0x3d20754d	0.039174367
78	0xbc1df929	-0.009641924
79	0x3ca7ef28	0.02049978
80	0x3e395532	0.18098906
81	0x3c827627	0.01592548
82	0x3da48032	0.08032264
83	0x3d69d9ea	0.057092585
84	0x3cf5404e	0.02993789
85	0x3cc3b88b	0.023891708
86	0xbad4c077	-0.0016231675
87	0x3d33218a	0.043733157
88	0xbcb4d874	-0.02207587
89	0x3e069aab	0.13144939
90	0x3cf43e64	0.029814906
91	0x3e384b50	0.1799748
92	0x3c05f980	0.008177161
93	0xbd457a0b	-0.048212092
94	0xbc6b6980	-0.014368415
95	0x3d2a74a6	0.04161515
96	0x3d47e227	0.04879966
97	0x3ccee4a3	0.025255507
98	0x3dcf1818	0.101120174
99	0xbd3d8b3f	-0.046275374
100	0xbd4b66cc	-0.04965858
101	0xbd2fac7b	-0.0428891
102	0x3d831272	0.064000025
103	0x3d20ba35	0.03924008
104	0xbc98b291	-0.018639835
105	0xbd06e6aa	-0.032934822
106	0x3dd1a96e	0.10237394
107	0xbd191bce	-0.037380032
108	0xbcb462f5	-0.022019843
109	0x3e37cedb	0.17950003
110	0xbc1d8601	-0.009614469
111	0x3dacff74	0.08447161
112	0xbb12043f	-0.0022280363
113	0xbd1c52f9	-0.038165066
114	0x3d85c10d	0.06530962
115	0x3d3bb1ca	0.04582385
116	0x3d8e2831	0.0694126
117	0x3dd9bf3b	0.106321774
118	0x3c1d7415	0.009610196
119	0xbb0500bf	-0.0020294634
120	0x3cb48ab0	0.022038788
121	0x3d8278a6	0.06370668
122	0xbd062d9a	-0.032758333
123	0x3d98cea3	0.07461288
124	0xbbae41f5	-0.0053179213
125	0x3de9c587	0.114146285
126	0x3d2fb66a	0.042898573
127	0x3d1e8050	0.038696587
128	0xbbe3c140	-0.0069505274
129	0x385d9800	5.2832067e-05
130	0x3cdb19d0	0.026745707
131	0xbd784498	-0.06061229
132	0x3cf41920	0.029797137
133	0xbc772f58	-0.015086971
134	0xbda748e8	-0.08168203
135	0xbc45d629	-0.012074986
136	0x3bd48830	0.0064859614
137	0xbcff0686	-0.03113104
138	0x3d8341b5	0.06409017
139	0x3ce855a4	0.02836115
140	0xbd683cc6	-0.056698583
141	0x3cfd6d70	0.030935973
142	0x3dac816b	0.08423122
143	0x3d58ee92	0.052961893
144	0x3e481c10	0.19541955
145	0xbd6a9a53	-0.05727608
146	0x3d63a13a	0.05557368
147	0xbd259264	-0.040422812
148	0xbd15a6d1	-0.03653604
149	0x3b4cba96	0.0031239144
150	0xbc07787e	-0.008268474
151	0x3cf56a34	0.029957868
152	0x3e346ef1	0.17620446
153	0x3d627736	0.05528947
154	0xbd0d0aca	-0.034434117
155	0x3cd85840	0.026409268
156	0xbd487798	-0.04894218
157	0x3d58f47c	0.052967533
158	0xbc950919	-0.018192815
159	0x3d783cdd	0.06060492
160	0x3d0c98e3	0.03432549
161	0x3e128fc1	0.1431265
162	0x3dd84b00	0.1056118
163	0x3d084ce4	0.033276454
164	0x3ca8c424	0.02060134
165	0xbd882b0a	-0.06648834
166	0x3d58cea8	0.052931458
167	0xbbfab83b	-0.0076513565
168	0xbd5e71bd	-0.054307688
169	0xbc0dc25d	-0.008652297
170	0x3e04ca9c	0.12967914
171	0xbd10492f	-0.035226043
172	0xbd4d2bc7	-0.050090577
173	0xbd508f39	-0.050917838
174	0xbd597b18	-0.053095907
175	0xbcfb4922	-0.03067452
176	0x3da6e2d5	0.081487335
177	0x3d2c3e15	0.042051394
178	0x3ddc5f40	0.10760355
179	0x3d9a07ba	0.07521005
180	0x3e4a1089	0.1973287
181	0x3d76402e	0.0601198
182	0xba26c782	-0.00063621264
183	0xbd196b8f	-0.03745609
184	0xba8f5178	-0.0010934314
185	0xbd4c0cdf	-0.049816962
186	0x3dc2c7b0	0.095107436
187	0x3d4ec5ac	0.050481483
188	0x3d317c7d	0.043331612
189	0x3e16f394	0.14741355
190	0x3c191c8f	0.009345188
191	0xbd4c74c2	-0.049916036
192	0x3d4656e0	0.048422694
193	0x3d0dff1f	0.03466713
194	0xbcf34e87	-0.02970053
195	0x3d38f547	0.04515579
196	0xbcf47386	-0.029840242
197	0x3da35e62	0.079769865
198	0x3e073879	0.13205136
199	0xbd884947	-0.066546015
200	0xbd94f22d	-0.07272754
201	0xbda8faea	-0.08250983
202	0xbc8fdd95	-0.017561713
203	0x3c0387a8	0.008027948
204	0xbd9701ec	-0.073734134
205	0xbd9f229c	-0.07770273
206	0xbd956b3e	-0.072958454
207	0x3e5dbea7	0.2165476
208	0xbb3c8079	-0.00287631
209	0x3c49f617	0.012326739
210	0x3a8574f8	0.0010181954
211	0x3d0a4906	0.033761047
212	0xbd451d0a	-0.048123397
213	0xbb833d79	-0.004005131
214	0x3da0027a	0.07812972
215	0xbc90819e	-0.017639931
216	0xbcb77ac1	-0.0223974
217	0x3e44f745	0.19234951
218	0x3d75e067	0.06002846
219	0xbd75f48f	-0.060047682
220	0x3c835680	0.016032457
221	0xbd1c4824	-0.038154736
222	0xbca15122	-0.019692007
223	0xbda95df8	-0.08269876
224	0x3dafba3b	0.085804425
225	0xbbe22ecb	-0.006902551
226	0xbdb3ea91	-0.08784974
227	0x3b783c7b	0.0037877846
228	0xbc107212	-0.008816259
229	0xbdcbb420	-0.099464655
230	0xbcd45732	-0.025920484
231	0x3c8c0ef7	0.01709698
232	0x3d62f02b	0.055404823
233	0x3dea5206	0.11441426
234	0xbd517d0c	-0.051144645
235	0x3da4d582	0.08048536
236	0xbd034e22	-0.032056935
237	0xbd302da9	-0.043012295
238	0x3d1f4f78	0.038894147
239	0xbd9f84e6	-0.0778902
240	0x3d5f1f2e	0.054473095
241	0x3c3faab9	0.011698418
242	0x3e2d1b9e	0.16905066
243	0xbbb18a08	-0.005418066
244	0x3d53b483	0.05168582
245	0xbd4b4351	-0.049624745
246	0xbd86f450	-0.06589568
247	0xbd97c26c	-0.0741013
248	0x3cc724b7	0.0243095
249	0xbd0391e0	-0.03212154
250	0x3df8476e	0.12122999
251	0x3d788651	0.06067497
252	0xbd75717a	-0.059922673
253	0x3e4effdc	0.2021479
254	0xbc5b7576	-0.013394704
255	0xbdb4f789	-0.08836276

1.bias f4 [50]
0	0x3e098591	0.13429858
1	0xbba1d87a	-0.004939136
2	0xbbe79ee5	-0.0070685023
3	0x3c990874	0.018680789
4	0x3d8a3cb2	0.06749858
5	0xbc7a9cf6	-0.0152962115
6	0x3de6a01f	0.112610094
7	0xbb029b6c	-0.0019929064
8	0x3bae8dd6	0.0053269668
9	0xbd810880	-0.06300449
10	0x3c07378c	0.0082529895
11	0x3d55bbc9	0.05218104
12	0x37c69ae9	2.3675575e-05
13	0xbd40994d	-0.0470212
14	0x3dbb81f8	0.09155649
15	0x3dd8e846	0.10591178
16	0x3d9fa16c	0.07794461
17	0xbc97bfb9	-0.018524038
18	0xbdc6e3d9	-0.09711427
19	0x3d045d43	0.032315504
20	0x3c677ce1	0.014128895
21	0xbc337fc5	-0.010955756
22	0xb964378e	-0.0002176447
23	0xbc87804b	-0.016540667
24	0x3d2815cd	0.041036416
25	0xbda3b84a	-0.07994135
26	0x3d2887fd	0.041145314
27	0x3d8dfae1	0.06932617
28	0xbda02a40	-0.078205585
29	0xbd29cd94	-0.04145582
30	0x3cfe13bd	0.031015271
31	0x3db12dab	0.086512886
32	0x3d1a104b	0.037613194
33	0x3e0684fa	0.13136664
34	0x3cac2fc6	0.021018874
35	0x3d1173c6	0.0355108
36	0xbdba8207	-0.09106832
37	0xba8aafee	-0.0010580996
38	0x3d2a2134	0.04153557
39	0x3d856e50	0.06515181
40	0xbd6659a4	-0.05623783
41	0xbd0d4917	-0.034493532
42	0xbb510400	-0.0031893253
43	0xbc25fc8e	-0.0101310145
44	0xbd822d0c	-0.06356248
45	0x3d7e80be	0.062134497
46	0xbd62c17f	-0.055360314
47	0xbcf76df9	-0.030203806
48	0x3cbe7553	0.023249304
49	0xbb64f846	-0.0034938022

3.weight f4 [10, 50]
0	0x3d1510e1	0.03639305
1	0xbcca0b36	-0.024663549
2	0xbd841d06	-0.06450848
3	0x3d97fa35	0.0742077
4	0x3cc572e8	0.024102643
5	0x3bc77a69	0.0060875905
6	0xbdcab828	-0.09898406
7	0xbe303cf0	-0.17210746
8	0x3d31dc6c	0.0434231
9	0x3de7c041	0.113159664
10	0xbdb8d17a	-0.090243295
11	0xbb63c68e	-0.00347558
12	0xbc83b644	-0.016078122
13	0x3dc24c6d	0.09487233
14	0x3d800110	0.06250203
15	0x3d89b6df	0.06724333
16	0x3dae5963	0.08513143
17	0xbe08fad5	-0.13376935
18	0xbc29d4cc	-0.010365676
19	0x3d522f28	0.051314503
20	0xbdc3b6ef	-0.09556376
21	0xbd80c0a4	-0.06286743
22	0xbdbd8b7d	-0.09255121
23	0xbd161ef9	-0.03665063
24	0xbc823431	-0.015894027
25	0x3d949e9a	0.07256813
26	0x3cafeaa7	0.021474196
27	0x3dab7e73	0.08373728
28	0xbd530911	-0.05152232
29	0xbc7576f2	-0.014981972
30	0xbc951e7d	-0.018203015
31	0x3c9bcbf2	0.019018147
32	0x3de69e92	0.11260714
33	0x3dc035b0	0.0938524
34	0xbdb4be8a	-0.08825405
35	0x3da97fa7	0.08276301
36	0x3dbf4b26	0.09340505
37	0xbe0c2363	-0.13685374
38	0xbd619fbd	-0.05508398
39	0x3dc6d955	0.097094215
40	0x3d906efc	0.070524186
41	0x3c074e9b	0.008258487
42	0xbd052f68	-0.032515913
43	0xbd8930ba	-0.06698747
44	0xbdaee672	-0.08540048
45	0x3df20eb0	0.11819208
46	0x3daf7982	0.08568098
47	0xbe1cce2f	-0.15313028
48	0x3d88ec98	0.06685752
49	0xbdc7ea9f	-0.09761547
50	0xbd585473	-0.052814912
51	0x3bf70b03	0.0075391545
52	0xbcb8c5af	-0.0225552
53	0xbcd31e45	-0.02577127
54	0xbd37224c	-0.044710442
55	0x3d0b38c0	0.033989668
56	0xbe1b2e3d	-0.15154357
57	0xbddd80a6	-0.10815553
58	0x3d150e41	0.036390547
59	0xbe037e96	-0.12841257
60	0xbd9bad99	-0.076014705
61	0xbda521f2	-0.08063115
62	0xbdfba2f0	-0.12286937
63	0xbd85aa71	-0.0652665
64	0x3dbf2447	0.09333091
65	0x3d82cb47	0.06386428
66	0x3b7dfb59	0.0038754551
67	0x3df11d49	0.11773164
68	0x3c1ca528	0.009560861
69	0xbd8638c4	-0.06553796
70	0x3d8d0ddd	0.0688741
71	0xbdf2d6dd	-0.11857388
72	0x3b848459	0.0040440974
73	0xbd369aa1	-0.04458106
74	0xbe07c810	-0.13259912
75	0xbe0c09a0	-0.13675547
76	0xbd2a26f6	-0.041541062
77	0x3cc18902	0.0236249
78	0x3dbee594	0.09321132
79	0xbbf58fa9	-0.0074939323
80	0xbe10aacb	-0.14127652
81	0xbdd06591	-0.10175622
82	0x3d3ff6fc	0.046866402
83	0x3db34833	0.08754005
84	0xbde60dc0	-0.11233091
85	0x3d48e9fa	0.049051262
86	0xbda462a9	-0.080266304
87	0xbe226e33	-0.1586235
88	0xbd9818b4	-0.07426587
89	0x3d57e541	0.052708868
90	0xbd86c077	-0.065796785
91	0x3dbb5237	0.091465406
92	0x3d874fc0	0.06607008
93	0x3c95d473	0.01828978
94	0x3cd15df0	0.025557488
95	0x3dad350e	0.08457385
96	0x3de8bd6a	0.11364253
97	0x3d1e1330	0.038592517
98	0x3d86c717	0.06580942
99	0xbda91f6c	-0.08257946
100	0xbd8fa910	-0.07014668
101	0x3da48d73	0.08034792
102	0x3d9a18a4	0.07524231
103	0x3db8ceb6	0.09023802
104	0xbd40af83	-0.04704238
105	0xbdcd4a9b	-0.100239955
106	0x3d9be276	0.07611553
107	0xbe101e5d	-0.14074083
108	0x3d48b79b	0.049003225
109	0x3d50da58	0.05098948
110	0x3d96bff7	0.07360833
111	0xbd6d04bf	-0.057865854
112	0x3d81a10d	0.06329546
113	0x3de1f839	0.11033673
114	0x3df3411f	0.11877655
115	0xbdc2f453	-0.095192574
116	0x3d1e1968	0.038598448
117	0xbdbdb9e4	-0.092639714
118	0xbd4bb377	-0.049731698
119	0x3cebb275	0.028771618
120	0x3d9d842e	0.07691227
121	0x3d158c1d	0.036510576
122	0x3d42f209	0.047594104
123	0xbde9f252	-0.11423172
124	0xbcf8404a	-0.030304093
125	0x3d59099a	0.052987672
126	0xbda44b17	-0.08022135
127	0xbde47894	-0.11155811
128	0x3a8f5392	0.001093494
129	0x3d6b7123	0.057480942
130	0xbdbb2a67	-0.09138947
131	0x3d37d275	0.04487844
132	0x3db74b40	0.089499
133	0xbe0fe38f	-0.1405165
134	0xbbedcf38	-0.0072573684
135	0xbc64bb87	-0.013960726
136	0x3dcfb6d0	0.101422906
137	0x3d716c6a	0.058941282
138	0x3d9d98b3	0.07695141
139	0x3ca6b363	0.02034921
140	0xbb3839ae	-0.0028110552
141	0xbd3dc773	-0.046332788
142	0xbd42fac7	-0.04760244
143	0x3def70fd	0.11691473
144	0xbc3c4c50	-0.011492804
145	0x3d942cb8	0.07235092
146	0x3d1b7d73	0.037961435
147	0x3da86f40	0.08224344
148	0xbd996d81	-0.07491589
149	0x3d0cf4d3	0.03441317
150	0x3d57251a	0.052525617
151	0xbd88bb3d	-0.06676338
152	0xbcde23b8	-0.027116641
153	0x3bedd7b6	0.0072583808
154	0xbe1d23ee	-0.15345737
155	0x3d6c1c39	0.057644103
156	0xbdb5c098	-0.08874625
157	0xbd9cd5fc	-0.07658002
158	0x3d3808f5	0.044930417
159	0x3dd1275b	0.102125846
160	0x3ddca2da	0.10773249
161	0xbe119289	-0.14216055
162	0x3d9a48ae	0.07533394
163	0x3db758df	0.08952498
164	0xbd4ffb76	-0.05077692
165	0x3d74d6dc	0.05977522
166	0xbdbc655b	-0.091990195
167	0x3d5605db	0.052251678
168	0xbd66c39d	-0.056338895
169	0x3dc229e2	0.09480645
170	0x3d7a02f7	0.061037984
171	0xbe20dbba	-0.15708819
172	0xbd018bf2	-0.031627603
173	0x3c1c7861	0.009550185
174	0xbd2c9ed5	-0.04214366
175	0xbc7218ad	-0.014776391
176	0xbdf9387b	-0.12168976
177	0x3c88e50c	0.01671078
178	0xbd10ec8b	-0.035381835
179	0x3df33873	0.11876001
180	0x3d502012	0.050811835
181	0xbda006c4	-0.078137904
182	0xbda1b08c	-0.07895002
183	0xbdde32f0	-0.10849559
184	0xbe1ed0e3	-0.15509371
185	0xbc2a4680	-0.010392785
186	0x3d1a6c12	0.03770072
187	0x3cb5f0c8	0.02220954
188	0xbda1db77	-0.07903188
189	0xbd239faa	-0.03994719
190	0x3cd5340f	0.0260258
191	0xbdd4c99a	-0.10390015
192	0x3dc7f346	0.097631976
193	0xbdac5007	-0.084137015
194	0xbc620f54	-0.0137976
195	0x3d6e117e	0.05812215
196	0xb85fd8f5	-5.33694e-05
197	0xbe13a51e	-0.14418456
198	0xbd331f50	-0.043731034
199	0xbda8d0ec	-0.08242974
200	0xbde22e86	-0.1104403
201	0xbe1f03b8	-0.15528762
202	0xbcd93ce9	-0.026518302
203	0x3d7b8399	0.0614048
204	0xbe2ab801	-0.16671754
205	0xbddc4722	-0.10755755
206	0xbccbc83c	-0.024875753
207	0xbd8feced	-0.07027612
208	0xbda80686	-0.08204369
209	0xbe24a045	-0.16076763
210	0x3dab7b54	0.08373132
211	0x3dc396e6	0.09550266
212	0x3dce3ba4	0.10069969
213	0xbdd3c340	-0.10339975
214	0x3d638076	0.05554243
215	0xbdc6f1d6	-0.09714095
216	0xbe0d1729	-0.13778366
217	0xbd1ca777	-0.038245644
218	0xbd321315	-0.04347523
219	0xbdcd6dd4	-0.10030714
220	0x3d9c13e4	0.07620981
221	0xbb540bdb	-0.00323557
222	0x3cd4eb95	0.02599124
223	0x3d27d9b4	0.040979102
224	0x3d7b071c	0.061286077
225	0x3d3dd5c8	0.046346456
226	0x3de3a632	0.111156836
227	0x3d441c08	0.047878295
228	0xbd50ced3	-0.050978493
229	0xbd93cf4c	-0.07217273
230	0xbdab634c	-0.08368549
231	0xbe1f6b43	-0.15568261
232	0x3d8291be	0.06375454
233	0x3daa05cc	0.08301887
234	0x3dde57ba	0.10856576
235	0xbe05bb5f	-0.13059758
236	0x3dcf2f26	0.10116415
237	0x3d1550ea	0.03645412
238	0xbda83d56	-0.08214824
239	0xbd4e5fee	-0.050384454
240	0xbd069cc5	-0.03286435
241	0xbdae9a7f	-0.085255615
242	0x3d3d92e2	0.046282656
243	0xbd4f5387	-0.050616767
244	0xbd7825ed	-0.060583044
245	0x3d92a843	0.071609996
246	0xbd7b68f6	-0.061379395
247	0xbca5788f	-0.020199088
248	0x3cdaebeb	0.026723823
249	0x3d3a0ea6	0.045424126
250	0x3cf2c1a0	0.029633343
251	0x3dd7a621	0.105297334
252	0x3be0c042	0.0068588564
253	0xbe06ff31	-0.13183285
254	0x3ce0190e	0.027355697
255	0xbc798e27	-0.015231646

3.bias f4 [10]
0	0x3d1a2c5d	0.037639964
1	0x3c34ef60	0.0110434
2	0xbcd9c1ab	-0.026581606
3	0xbce10e68	-0.02747269
4	0xbd806647	-0.06269508
5	0x3dbefdb9	0.093257375
6	0x3e029a52	0.12754181
7	0xbd7f3b85	-0.06231262
8	0xbd58148d	-0.052753974
9	0xbc390faa	-0.0112952385

5.weight f4 [1, 10]
0	0xbd9c470f	-0.07630741
1	0xbb99c522	-0.0046926895
2	0xbe6a9cc7	-0.22911368
3	0xbe07bc95	-0.13255532
4	0xbdaa7b91	-0.0832435
5	0xbe8b5f43	-0.27221116
6	0x3e801015	0.2501227
7	0xbe9184b5	-0.2842156
8	0x3e0fe02f	0.14050363
9	0xbe43e7e0	-0.19131422
